save/Sep19_12-42-51_alpha=0.6, min_eps=0.01, eps_decay=0.2/checkpoint_5223.pth (torch_old, 77772 bytes, 24 tensors)

sequential.0.weight f4 [64, 4]
-0.385805 0.5122789 0.26467055 0.30491582 0.15455218 -0.2002063 -0.9600171 0.12227844
0.20811494 -0.3111365 0.010597536 0.10440706 0.35490608 0.41300887 1.4309858 0.38110232
0.24577618 0.42156416 0.41068694 -0.17848969 -0.23293853 -0.69355845 -1.4146333 -0.6383311
0.4427503 0.24670272 1.2313054 0.2020248 0.42035815 -0.35617286 -0.6725079 -0.011762507
-0.02045401 0.19067308 0.7204369 0.42246756 -0.15487795 0.27213728 -0.85618955 -0.20974302
-0.2778717 0.17822501 0.5032261 -0.16360433 -0.15099214 -0.2200827 0.42390022 0.10477219
-0.4013079 0.555513 0.10845185 0.18604527 -0.46811154 0.063733265 0.37649903 0.009853576
-0.01668149 0.10938581 0.49202964 0.036729418 0.025480257 0.023434801 0.42871246 -0.21210203
-0.5557828 -0.6142075 -0.80746824 -0.46818042 0.09361284 -0.036109507 0.84254843 -0.019096116
-0.19814616 0.14975534 -0.47720563 -0.29274464 0.29787087 -0.1944382 -0.55797017 -0.40562013
0.4721226 0.11985094 -0.59999436 -0.08049509 -0.10135972 0.29899493 0.84736747 0.40437704
-0.48554942 -0.26522192 -0.9400479 -0.22353041 0.46055236 0.48484147 0.56288886 0.3565814
0.21633035 0.19216307 -1.3275605 -0.002215012 -0.20897864 0.16255869 0.45734686 0.2928041
0.33082315 0.6950325 0.70467186 0.45974672 -0.38384396 -0.3451319 0.16878074 0.13652544
0.57186985 -0.09530541 -1.2893393 -0.10589097 0.26472214 -0.3928224 -1.2028935 0.1823031
0.11376865 0.4845442 0.23434116 -0.18092358 0.13549723 0.16294917 -0.22438356 0.12887882
0.038742658 -0.030618835 -1.8686222 -0.31647557 -0.17338982 -0.11369986 -0.017805658 0.28309697
0.2685313 0.41560444 1.7361637 0.3484222 0.777777 0.1647882 -0.13948317 0.078627504
0.2115496 0.63817096 1.3047477 0.53311694 0.014921343 -0.18275721 0.42223167 0.4402757
-0.0316729 0.04500336 -0.8857194 -0.24062185 0.36265662 -0.04794956 -0.9357197 0.12215791
0.42894012 -0.07293714 0.026466673 -0.057737622 -1.0294673 -0.040900335 -0.009461188 0.0144580975
0.1856849 -0.20520164 -1.586663 -0.4757818 0.10843056 -0.2900556 -0.39534152 -0.17562243
0.0018169007 0.12760377 0.24232411 0.15444912 0.8862025 0.50987434 0.2978917 0.29484856
0.27511314 0.10503271 0.6423306 -0.0034355377 0.036831584 0.16422102 1.4059775 0.35864538
-0.22541685 0.38867348 1.4808298 0.5363589 0.33708167 -0.29098418 -0.83063024 -0.36358345
-0.154576 -0.09079962 0.68497324 0.12157696 -0.5225908 -0.60501593 -0.8420188 -0.43436858
0.5113453 0.07104763 -1.4228736 -0.049891908 -0.6385575 -0.3146513 0.28153536 0.3424702
0.67406464 0.6208747 0.96185625 0.43280494 -0.25438288 0.40776056 0.853887 0.45717847
-0.47007522 -0.33721042 1.3440703 0.059288893 -0.26078233 -0.43939728 0.95427245 -0.13931894
0.045878857 0.019500598 0.567679 0.20021702 -0.50111425 0.22552505 0.68445677 0.22331408
-0.06249141 0.2766792 0.34456939 -0.15625164 0.6511766 -0.39002815 -0.16670544 0.35643128
0.37663588 -0.06605969 -0.31705648 0.17159088 -0.35510308 0.2526519 0.49349323 0.42004013
00000000: 3c88 c5be b624 033f e682 873e ed1d 9c3e
00000010: ed42 1e3e e102 4dbe aec3 75bf 1e6d fa3d
00000020: 151c 553e 494d 9fbe 4aa1 2d3c 5ed3 d53d
00000030: 40b6 b53e e675 d33e 8b2a b73f d81f c33e
00000040: c0ac 7b3e 42d7 d73e 8f45 d23e 00c6 36be
00000050: 7087 6ebe 0c8d 31bf b412 b5bf ab69 23bf
00000060: 2bb0 e23e a39f 7c3e 6a9b 9d3f 97df 4e3e
00000070: 2f39 d73e 4a5c b6be 7a29 2cbf 88b7 40bc
00000080: 2b8f a7bc ce3f 433e 8d6e 383f ab4d d83e
00000090: 5398 1ebe 9455 8b3e 3d2f 5bbf e0c6 56be
000000a0: 3345 8ebe 9e80 363e 6dd3 003f e587 27be
000000b0: af9d 1abe 5c5d 61be 7309 d93e cd92 d63d
000000c0: 3b78 cdbe 1a36 0e3f 011c de3d a782 3e3e
000000d0: 51ac efbe 9686 823d 7bc4 c03e e570 213c
000000e0: 9fa7 88bc ab05 e03d 4feb fb3e 9671 163d
000000f0: f9bb d03c 57fa bf3c 3380 db3e 4631 59be
00000100: c847 0ebf b43c 1dbf 3db6 4ebf 58b5 efbe
00000110: 17b8 bf3d 90e7 13bd 41b1 573f 756f 9cbc
00000120: d4e6 4abe 7759 193e 4c54 f4be a0e2 95be
00000130: 8882 983e cf1a 47be 22d7 0ebf 71ad cfbe
00000140: 0eba f13e 6974 f53d 3b99 19bf 9cda a4bd
00000150: af95 cfbd dd15 993e 13ed 583f 820a cf3e
00000160: ef99 f8be 2bcb 87be fba6 70bf 28e5 64be
00000170: 85cd eb3e 243d f83e 7c19 103f d691 b63e
00000180: b485 5d3e 65c6 443e 81ed a9bf bc29 11bb
00000190: 7ffe 55be c975 263e 5e29 ea3e 6bea 953e
000001a0: a761 a93e a6ed 313f 6065 343f ec63 eb3e
000001b0: 3287 c4be 21b5 b0be dcd4 2c3e 53cd 0b3e
000001c0: 1066 123f 7c2f c3bd 1209 a5bf 5ddd d8bd
000001d0: a989 873e 0520 c9be 6af8 99bf aaad 3a3e
000001e0: 8aff e83d 2d16 f83e 21f7 6f3e 0844 39be
000001f0: c9bf 0a3e 26dc 263e cec4 65be cff8 033e
00000200: 9fb0 1e3d 5ad4 fabc 032f efbf 1609 a2be
00000210: 1a8d 31be 79db e8bd 2cdd 91bc 16f2 903e
00000220: ef7c 893e 1bca d43e 9d3a de3f 6564 b23e
00000230: 651c 473f 3dbe 283e add4 0ebe 7507 a13d
00000240: 75a0 583e 2c5f 233f f901 a73f 5a7a 083f
00000250: a678 743c b524 3bbe c02e d83e d16b e13e
00000260: 71bb 01bd 7155 383d 82be 62bf 9365 76be
00000270: 21ae b93e c266 44bd 548b 6fbf ed2d fa3d
00000280: 0a9e db3e 1160 95bd a3d0 d83c 497e 6cbd
00000290: 96c5 83bf 1c87 27bd 1903 1bbc a8e1 6c3c
000002a0: 2f24 3e3e 6120 52be c617 cbbf ac99 f3be
000002b0: d710 de3d 2b82 94be 346a cabe 5ed6 33be
000002c0: 1225 ee3a 90aa 023e d023 783e e927 1e3e
000002d0: 2bde 623f 2087 023f 4385 983e 64f6 963e
000002e0: a1db 8c3e 641b d73d c76f 243f c226 61bb
000002f0: b7dc 163d 8e29 283e 12f7 b33f 5ea0 b73e
00000300: add3 66be 3600 c73e d58b bd3f d14e 093f
00000310: f895 ac3e e1fb 94be 2fa4 54bf 9c27 babe
00000320: 2c49 1ebe 27f5 b9bd 685a 2f3f 57fd f83d
00000330: 83c8 05bf 53e2 1abf 8b8e 57bf 8f65 debe
00000340: 87e7 023f 6b81 913d b920 b6bf 755b 4cbd
00000350: 8178 23bf fa19 a1be 6725 903e 4158 af3e
00000360: 808f 2c3f a5f1 1e3f 363c 763f 9c98 dd3e
00000370: 793e 82be fec5 d03e 5798 5a3f 4c13 ea3e
00000380: b3ad f0be d8a6 acbe 7f0a ac3f e9d8 723d
00000390: 4385 85be aef8 e0be 334b 743f a0a9 0ebe
000003a0: 78eb 3b3d b8bf 9f3c 6953 113f b105 4d3e
000003b0: 0649 00bf 0af0 663e 8f38 2f3f 72ac 643e
000003c0: fef6 7fbd e5a8 8d3e 666b b03e 6e00 20be
000003d0: 82b3 263f c5b1 c7be d5b4 2abe 297e b63e
000003e0: 6bd6 c03e 4e4a 87bd 3a55 a2be 85b5 2f3e
000003f0: 12d0 b5be 975b 813e 25ab fc3e 800f d73e

sequential.0.bias f4 [64]
0.74430364 0.5984625 -0.59197384 -0.2772589 0.6424575 -0.299124 -0.15359998 0.47801742
0.9258257 0.800589 0.8963413 0.7706971 0.88052464 -0.26874518 0.5059318 0.4189103
-0.16429216 0.57864714 0.8775844 0.85172695 -0.4445088 0.94304353 0.061612308 0.07654369
0.12335371 0.57069886 -0.29766613 -0.30991197 0.11498403 0.9218263 0.41629446 0.5260023
-0.4277913 0.9223608 -0.2820111 -0.090085156 0.14760008 -0.46918902 0.5817098 0.36382023
-0.1723933 -0.17923859 -0.19631277 0.5538773 0.5962414 -0.23889323 0.76942945 -0.25439915
-0.46145168 0.5598476 0.62128365 0.45099327 -0.20711909 -0.03627415 -0.42193463 -0.30819187
-0.1474664 0.5523268 0.6223172 -0.15904063 0.9106602 -0.49620417 0.26734006 0.88980174
00000000: af8a 3e3f d734 193f 998b 17bf e1f4 8dbe
00000010: 1878 243f c826 99be 5049 1dbe b3be f43e
00000020: ea02 6d3f 67f3 4c3f a076 653f 684c 453f
00000030: 106a 613f f898 89be bf84 013f 697b d63e
00000040: 343c 28be 3822 143f 5fa9 603f c70a 5a3f
00000050: a896 e3be 4d6b 713f 305d 7c3d f0c2 9c3d
00000060: dfa0 fc3d 5219 123f b267 98be c8ac 9ebe
00000070: bf7c eb3d cffc 6b3f 8c24 d53e 16a8 063f
00000080: 7607 dbbe d61f 6c3f c263 90be 917e b8bd
00000090: 7a24 173e 8b39 f0be efea 143f a546 ba3e
000000a0: df87 30be 528a 37be 3706 49be e7ca 0d3f
000000b0: 47a3 183f 6da0 74be 54f9 443f 9b40 82be
000000c0: 6543 ecbe 2c52 0f3f 720c 1f3f 97e8 e63e
000000d0: 0717 54be 3494 14bd d107 d8be 53cb 9dbe
000000e0: 6f01 17be 4a65 0d3f 2e50 1f3f 8cdb 22be
000000f0: 0721 693f 790e febe cce0 883e 0cca 633f

sequential.2.weight f4 [64, 64]
0.24828868 0.21161236 -0.3724197 -0.83067924 0.3615065 -0.560101 -0.67188865 0.13049158
0.28968698 0.22078136 0.29737315 0.32808357 0.24421018 -0.33319074 0.3115459 0.21380153
-0.15963691 0.28020692 0.24990058 0.3252244 -0.72947425 0.23414917 -0.5134057 -0.24237905
-0.24362709 0.200199 -0.64993745 0.024652623 0.13466215 0.3702624 0.12028585 0.27298078
-0.538706 0.4092089 -1.286902 -0.28206575 -0.8506275 -0.15861568 0.3990966 0.29883152
-0.070065394 -0.39932293 -0.351709 0.41217622 0.3887392 -0.28484762 0.30285287 -0.6320436
-0.90658844 0.23887274 0.23794764 0.10734665 -0.24426383 -0.15253192 -0.5701174 -0.49119473
0.062421575 0.15385433 0.20712082 -0.32604384 0.24547602 -0.22139491 0.19116916 0.27995
0.4648803 0.1991882 0.31582478 -0.52318513 0.3965244 -0.44057035 -0.3165279 0.2732888
0.30555502 0.2999297 0.33447394 0.45222834 0.18707752 -0.18479434 0.31610048 0.43534613
-0.3826553 0.41631165 0.26022512 0.3066832 -0.3131674 0.27879286 -0.47110754 -0.123085566
0.21155463 0.41504115 0.040165566 -0.11022071 0.2661174 0.27936304 0.27386594 0.31236246
-0.499413 0.44170782 -0.8986049 0.07096836 -0.58294255 -0.07913975 0.38671592 0.24241444
0.34558716 -0.5772907 -0.2478414 0.3442541 0.45845312 0.0019018829 0.35106805 -0.099313326
-0.6084969 0.11184361 0.2995226 -0.11091618 0.12089449 -0.03985533 -0.18520734 -0.53643054
-0.18259053 0.08347136 0.26556447 -0.46521243 0.32506424 -0.011297773 0.26440796 0.32941657
0.2741876 0.2287971 0.16187766 -0.46973804 0.012981451 -0.620378 -0.7642303 0.20083266
0.08749002 0.030101813 0.028510015 0.087685496 0.15116177 -0.21934272 0.064163744 0.061317295
-0.27412096 0.08836907 0.002774861 0.2040759 -0.2649105 0.17014295 -0.8404806 -0.30335197
-0.1949795 0.10949254 -0.2569998 -0.01283258 -0.04811885 0.13471465 0.07204463 0.13110709
-0.5130379 0.12986039 -0.57903373 -0.49945813 -0.8619986 -0.00978731 -0.0016023847 0.09444904
0.12812324 -0.4476555 0.31590223 0.15540747 0.06071018 0.068167545 0.06215069 0.3886333
-0.1726782 0.08478571 0.18177044 0.0139047885 -0.1693699 0.12079775 -0.39875576 -0.08403809
0.18216278 0.31443092 0.03808128 -0.58175254 0.20984846 0.0743352 -0.0384708 0.24533781
0.14220674 0.070299886 0.27645433 -0.26294905 0.2571519 -0.4707979 -0.16637774 0.083070934
0.33158734 0.24514814 0.24571106 0.30176723 0.1617319 -0.34243917 0.074439846 0.1740642
-0.015153993 0.24384983 0.11172366 0.30787027 -0.28191644 0.1778664 -0.38211206 -0.025752874
0.00048291942 0.15439324 -0.12700418 -0.03675841 -0.111046895 0.24437906 0.19521084 0.21102996
-0.21569604 0.210389 -0.55969375 0.16279234 -0.17931397 -0.013274305 0.22193001 0.074814565
0.10147704 -0.26763585 -0.1895976 0.18551257 0.19946358 -0.09512186 0.30217198 -0.13314885
-0.2104517 0.3073451 0.27657923 0.03157898 -0.1180366 0.21348904 -0.10544203 -0.5550637
0.05155859 -0.05853378 0.15646611 -0.13372989 0.10985311 -0.07312505 0.120712265 0.2881854
00000000: 633f 7e3e e9b0 583e cbad bebe 65a7 54bf
00000010: 6117 b93e c762 0fbf e500 2cbf 969f 053e
00000020: da51 943e 8214 623e 4b41 983e 92fa a73e
00000030: 3c12 7a3e fa97 aabe f282 9f3e caee 5a3e
00000040: dc77 23be 4877 8f3e f0e5 7f3e d083 a63e
00000050: d3be 3abf cdc4 6f3e 8e6e 03bf 3732 78be
00000060: 6179 79be f700 4d3e 4d62 26bf 4cf4 c93c
00000070: e0e4 093e 0993 bd3e 6d58 f63d 23c4 8b3e
00000080: a3e8 09bf d483 d13e 34b9 a4bf ec6a 90be
00000090: b9c2 59bf 266c 22be 6456 cc3e 7200 993e
000000a0: 727e 8fbd 0e74 ccbe 3413 b4be c308 d33e
000000b0: d308 c73e 8cd7 91be 880f 9b3e 9ccd 21bf
000000c0: 2e16 68bf 0e9b 743e 8ca8 733e 8fd8 db3d
000000d0: 4c20 7abe 5431 1cbe 37f3 11bf e07d fbbe
000000e0: c4ad 7f3d fd8b 1d3e 7b17 543e 38ef a6be
000000f0: 115e 7b3e 59b5 62be d9c1 433e 9b55 8f3e
00000100: ca04 ee3e fef7 4b3e c9b3 a13e 76ef 05bf
00000110: 3f05 cb3e 7092 e1be f20f a2be 82ec 8b3e
00000120: b571 9c3e 6390 993e 2b40 ab3e 798a e73e
00000130: 4091 3f3e ba3a 3dbe ecd7 a13e b0e5 de3e
00000140: 65eb c3be cd26 d53e 3a3c 853e 9505 9d3e
00000150: 7a57 a0be f0bd 8e3e 0235 f1be 4914 fcbd
00000160: c7a1 583e 4680 d43e a684 243d 65bb e1bd
00000170: 8a40 883e ac08 8f3e 2838 8c3e f9ed 9f3e
00000180: 10b3 ffbe 8727 e23e f90a 66bf dc57 913d
00000190: b93b 15bf 0514 a2bd a1ff c53e 7e3b 783e
000001a0: cdf0 b03e 53c9 13bf 23ca 7dbe 1342 b03e
000001b0: 5eba ea3e 9a48 f93a 31bf b33e c964 cbbd
000001c0: 74c6 1bbf 430e e53d 075b 993e 0628 e3bd
000001d0: 8897 f73d 583f 23bd fea6 3dbe 8353 09bf
000001e0: 03f9 3abe 08f3 aa3d 11f8 873e 5330 eebe
000001f0: d26e a63e 4b1a 39bc 7b60 873e 4aa9 a83e
00000200: 5162 8c3e c949 6a3e 42c3 253e 8181 f0be
00000210: 27b0 543c 18d1 1ebf 99a4 43bf 14a7 4d3e
00000220: f82d b33d 1498 f63c d68d e93c 7494 b33d
00000230: 27ca 1a3e 619b 60be 4868 833d d827 7b3d
00000240: 9559 8cbe d8fa b43d 71da 353b 46f9 503e
00000250: 59a2 87be f439 2e3e bd29 57bf f350 9bbe
00000260: b5a8 47be a03d e03d 7a95 83be be3f 52bc
00000270: 4518 45bd a3f2 093e 238c 933d f040 063e
00000280: 7456 03bf 1ffa 043e 8e3b 14bf fab8 ffbe
00000290: f1ab 5cbf f45a 20bc 1c07 d2ba 806e c13d
000002a0: bd32 033e 1a33 e5be f0bd a13e 2323 1f3e
000002b0: 3dab 783d 6d9b 8b3d b991 7e3d f2fa c63e
000002c0: 8ed2 30be 21a4 ad3d 0822 3a3e e9d0 633c
000002d0: 4e6f 2dbe d064 f73d b729 ccbe 2a1c acbd
000002e0: e188 3a3e 17fd a03e 1efb 1b3d bced 14bf
000002f0: 84e2 563e 0e3d 983d 8f93 1dbd d639 7b3e
00000300: a59e 113e 63f9 8f3d 6c8b 8d3e 42a1 86be
00000310: 6aa9 833e 6c0c f1be ed5e 2abe 1821 aa3d
00000320: d1c5 a93e 1d08 7b3e ae9b 7b3e 3c81 9a3e
00000330: 0c9d 253e 3054 afbe eb73 983d e33d 323e
00000340: 7448 78bc c5b3 793e 60cf e43d 2ca1 9d3e
00000350: 5a57 90be 9c22 363e 31a4 c3be b1f7 d2bc
00000360: 5930 fd39 4319 1e3e 620d 02be fd8f 16bd
00000370: 8e6c e3bd 813e 7a3e 5ae5 473e 3d18 583e
00000380: 6cdf 5cbe 3770 573e 1748 0fbf 09b3 263e
00000390: 159e 37be 787c 59bc 9f41 633e 6138 993d
000003a0: 32d3 cf3d 9107 89be e025 42be 02f7 3d3e
000003b0: 2e40 4c3e 40cf c2bd 49b6 9a3e 2c58 08be
000003c0: a780 57be 565c 9d3e cb9b 8d3e f658 013d
000003d0: 2cbd f1bd df9c 5a3e fef1 d7bd a818 0ebf
000003e0: 1a2f 533d 1ec1 6fbd a738 203e 7df0 08be
000003f0: abfa e03d 96c2 95bd fe37 f73d 098d 933e

sequential.2.bias f4 [64]
0.4617416 0.21988225 0.05732855 0.32415918 0.17639413 -0.038145125 0.0993355 0.32055625
0.10343984 0.16624318 0.29926723 0.16757937 0.26220015 0.32655475 0.19060633 -0.051819395
-0.11160853 0.022340368 -0.106461965 0.4188531 0.08037625 0.5060759 0.19361289 0.15587749
-0.0018000709 0.113820784 0.14213471 0.24789064 0.24226509 0.5286137 0.070587106 0.3398319
0.11373944 0.3544548 0.38957533 0.064270236 0.12987846 0.10740351 -0.16917843 0.13561916
0.06636382 -0.10804216 0.2564336 0.03862963 0.18480931 0.21957387 0.11627981 0.19631419
-0.26497474 -0.1575485 -0.07713031 0.17239676 -0.1292678 0.08231543 -0.19108991 0.24979496
0.37787765 0.107496746 0.310307 0.18643202 0.04056774 0.063957475 -0.26769042 0.37116343
00000000: 6569 ec3e d028 613e 57d1 6a3d 31f8 a53e
00000010: aaa0 343e 103e 1cbd 6970 cb3d f31f a43e
00000020: 44d8 d33d a73b 2a3e 8e39 993e ed99 2b3e
00000030: 193f 863e 2f32 a73e 4e2e 433e 9340 54bd
00000040: 0393 e4bd 2603 b73c bb08 dabd ea73 d63e
00000050: 4e9c a43d 318e 013f 7542 463e 599e 1f3e
00000060: 5bf0 ebba df1a e93d c38b 113e 0bd7 7d3e
00000070: 5714 783e 3a53 073f f98f 903d 72fe ad3e
00000080: 39f0 e83d 197b b53e 6b76 c73e 1da0 833d
00000090: dcfe 043e 5ff6 db3d 1c3d 2dbe c0df 0a3e
000000a0: c1e9 873d 3545 ddbd 444b 833e 1a3a 1e3d
000000b0: a73e 3d3e f9d7 603e 1c24 ee3d 9606 493e
000000c0: c5aa 87be 6554 21be 7ff6 9dbd c788 303e
000000d0: c75e 04be fe94 a83d 13ad 43be 40ca 7f3e
000000e0: 2e79 c13e 4127 dc3d 8fe0 9e3e 09e8 3e3e
000000f0: 5c2a 263d 23fc 823d b80e 89be 2209 be3e

sequential.4.weight f4 [2, 64]
0.6384923 0.56328875 0.5195383 0.37528363 0.4267272 -1.0861968 0.35593304 0.46414328
0.67046255 -0.7557564 0.5815899 -0.8007354 0.6114131 0.64628536 0.2924287 -0.5050405
-0.54393333 -0.76004124 -0.5896842 0.64981323 -1.1289115 0.6860994 -0.2148417 0.51214254
-0.70201766 -0.58270264 0.7225559 0.5120729 0.6828269 0.5898572 0.4872159 0.5301031
0.5425231 0.41565588 0.47740355 0.0060770926 0.23923527 -0.91604376 -0.06875527 -0.63527095
-0.7739845 -0.42212266 0.5353175 0.5239695 -0.28994945 0.2691644 -0.73367584 0.10238566
-0.732838 0.5866567 -0.7120481 0.57010674 -0.697071 -1.298183 0.32622802 0.47496843
0.648506 0.58419573 0.47762638 0.3303903 -0.45173514 -0.27621293 0.12553176 0.546583
0.40562007 0.5833598 0.3913797 0.16732943 0.49397466 -1.0859138 0.8907737 0.5621036
0.6015848 -0.69691366 0.43783253 -0.98237056 0.5079763 0.5716618 0.6188185 -0.26359904
-0.94155926 -0.5633599 -0.9397414 0.49728245 -1.0860668 0.7570098 0.33855417 0.59895927
-0.8391861 -1.1430156 0.6853755 0.28038487 0.75096005 0.66187596 0.5921357 0.49912882
0.50987315 0.24573861 0.4772276 -0.031183138 0.44736722 -1.0340115 -0.79608977 -0.12202324
-0.7364323 -0.20462139 0.5610827 0.58352447 0.34474504 -0.4905885 -1.0054208 0.49835423
-0.8950318 -0.31147537 -0.6310255 0.5056943 -0.6609903 -0.94675094 0.3422435 0.28217456
0.6439103 0.42477378 0.29249316 0.63506824 0.14691283 0.3869278 -0.835739 0.34648612
00000000: 3b74 233f b133 103f 7600 053f 2d25 c03e
00000010: fd7b da3e 7f08 8bbf db3c b63e 30a4 ed3e
00000020: 6fa3 2b3f 4079 41bf 13e3 143f fffc 4cbf
00000030: 9285 1c3f f572 253f 37b9 953e 564a 01bf
00000040: 373f 0bbf 1092 42bf 8bf5 16bf 295a 263f
00000050: 2c80 90bf 36a4 2f3f 76ff 5bbe c61b 033f
00000060: 6eb7 33bf 002c 15bf 6cf9 383f 3617 033f
00000070: becd 2e3f e200 173f 5d74 f93e d6b4 073f
00000080: cbe2 0a3f d9d0 d43e 3d6e f43e 5922 c73b
00000090: 17fa 743e d881 6abf 90cf 8cbd 1ea1 22bf
000000a0: d923 46bf 7620 d8be 910a 093f dd22 063f
000000b0: 4174 94be ebcf 893e 2ed2 3bbf 93af d13d
000000c0: 459b 3bbf 222f 163f c948 36bf 84f2 113f
000000d0: 3f73 32bf dc2a a6bf 5c07 a73e 102f f33e
000000e0: 7d04 263f da8d 153f 728b f43e eb28 a93e
000000f0: d449 e7be c86b 8dbe 668b 003e ddec 0b3f
00000100: 6fad cf3e 1157 153f ec62 c83e 6858 2b3e
00000110: 3fea fc3e 39ff 8abf bf09 643f 06e6 0f3f
00000120: 7601 1a3f ef68 32bf 962b e03e a37c 7bbf
00000130: bc0a 023f 6d58 123f e46a 1e3f 74f6 86be
00000140: 070a 71bf 5b38 10bf e492 70bf ce9b fe3e
00000150: 3d04 8bbf 65cb 413f f956 ad3e 6555 193f
00000160: e6d4 56bf 564e 92bf c574 2f3f 9b8e 8f3e
00000170: eb3e 403f b470 293f 3596 173f d08d ff3e
00000180: 0c87 023f e7a2 7b3e 2d57 f43e c873 ffbc
00000190: 510d e53e 7d5a 84bf 8acc 4bbf 52e7 f9bd
000001a0: d486 3cbf 4588 51be 1ea3 0f3f dc61 153f
000001b0: 6c82 b03e 6a2e fbbe a1b1 80bf 4928 ff3e
000001c0: ce20 65bf b379 9fbe e38a 21bf 2f75 013f
000001d0: a936 29bf 455e 72bf 8a3a af3e 2f79 903e
000001e0: 4ed7 243f f37b d93e aac1 953e d593 223f
000001f0: 5170 163e 671b c63e fef2 55bf a166 b13e

sequential.4.bias f4 [2]
0.21439135 0.26400277
00000000: 6889 5b3e 5f2b 873e

sequential.0.weight f4 [64, 4]
-0.38544774 0.5124324 0.264721 0.3049623 0.15489201 -0.20007506 -0.9600792 0.12233321
0.20811974 -0.31112537 0.010597191 0.10440261 0.35490555 0.41299102 1.4309472 0.3811319
0.24611942 0.42220056 0.41070873 -0.17892455 -0.2329454 -0.6935388 -1.4147344 -0.6383441
0.44265777 0.24672821 1.2314249 0.20203999 0.42075077 -0.35662308 -0.6729894 -0.011217029
-0.020113472 0.19081704 0.72052234 0.4225199 -0.15347418 0.2723543 -0.8567996 -0.2097992
-0.27760118 0.17836106 0.50327826 -0.16355264 -0.15061882 -0.21994607 0.42387015 0.104819976
-0.4010053 0.5556576 0.10846822 0.18609995 -0.46809623 0.06372937 0.3764827 0.009853055
-0.016507985 0.10951236 0.49213806 0.03679387 0.025639433 0.023556488 0.42878082 -0.21203622
-0.55579066 -0.61426353 -0.8075043 -0.46818563 0.09379666 -0.03598757 0.8426084 -0.019029543
-0.19747986 0.1499198 -0.47738796 -0.29273015 0.29838547 -0.1942885 -0.5580393 -0.40559426
0.47214934 0.11985531 -0.60001785 -0.08050083 -0.10106982 0.299136 0.84744793 0.40443414
-0.4865386 -0.26533535 -0.9503475 -0.2240893 0.46104434 0.4850407 0.56335837 0.3562951
0.21497113 0.19195056 -1.3280916 -0.0016631112 -0.20859817 0.16270187 0.45734033 0.29285344
0.33082494 0.69502896 0.7046254 0.45978123 -0.38756514 -0.34711426 0.17553015 0.1384506
0.57451665 -0.09473344 -1.2885015 -0.10584736 0.26513955 -0.39268276 -1.2028968 0.18234622
0.11406113 0.48472133 0.2362453 -0.18088107 0.13600908 0.16310667 -0.22439711 0.12890793
0.0389248 -0.030878086 -1.8684251 -0.31622273 -0.17289901 -0.11355124 -0.017876444 0.2831352
0.26850748 0.41558385 1.7361269 0.34843832 0.78006184 0.16230527 -0.14243874 0.079864524
0.21065493 0.63799304 1.3066224 0.5331955 0.011823967 -0.18378907 0.42957616 0.44130272
-0.031135412 0.045150843 -0.8859319 -0.24058808 0.36305687 -0.047806893 -0.9357159 0.12220112
0.42893547 -0.072930954 0.026467595 -0.05774088 -1.0294452 -0.04089863 -0.009461893 0.014457572
0.18940324 -0.20235257 -1.5909094 -0.47860312 0.10883954 -0.28991514 -0.39537188 -0.17558268
0.0020643407 0.12773444 0.2423547 0.15451095 0.8861835 0.50983495 0.29789296 0.29485306
0.27538913 0.105166 0.6423694 -0.0033798178 0.041062362 0.16086896 1.4034234 0.3620194
-0.22513305 0.38898295 1.4805607 0.5360513 0.3378618 -0.29081777 -0.83087164 -0.3635794
-0.1543361 -0.09067359 0.68498075 0.12163972 -0.5183987 -0.604745 -0.84352463 -0.4347301
0.5114216 0.071115665 -1.4229599 -0.049948372 -0.6173044 -0.3169332 0.2761329 0.3450858
0.6740478 0.6208798 0.96182275 0.43283957 -0.25443062 0.40772402 0.8539369 0.45721024
-0.45769042 -0.33899418 1.3397319 0.061260317 -0.26031315 -0.439253 0.9542644 -0.13928628
0.046121575 0.019632444 0.56777114 0.20027597 -0.5015888 0.22517465 0.68459123 0.22374037
-0.062300995 0.2768068 0.3446145 -0.15618776 0.6503609 -0.38972354 -0.16040364 0.35633156
0.37711447 -0.06650555 -0.3165973 0.17216219 -0.35466895 0.2528037 0.49351415 0.4200811
00000000: 6859 c5be c52e 033f 8389 873e 0524 9c3e
00000010: 039c 1e3e 7ae0 4cbe c0c7 75bf d689 fa3d
00000020: 571d 553e d34b 9fbe d79f 2d3c 09d1 d53d
00000030: 2eb6 b53e 8f73 d33e 4729 b73f b823 c33e
00000040: bb06 7c3e ac2a d83e 6a48 d23e ff37 37be
00000050: 3d89 6ebe c28b 31bf 0416 b5bf 856a 23bf
00000060: 0aa4 e23e 52a6 7c3e 559f 9d3f 92e3 4e3e
00000070: a56c d73e 4d97 b6be 0949 2cbf a1c7 37bc
00000080: 02c5 a4bc 8b65 433e 2774 383f 8754 d83e
00000090: 5628 1dbe 0672 8b3e 3857 5bbf 9ad5 56be
000000a0: be21 8ebe 48a4 363e d8d6 003f 587a 27be
000000b0: d23b 1abe 8b39 61be 8205 d93e dbab d63d
000000c0: 9150 cdbe 943f 0e3f 9624 de3d fc90 3e3e
000000d0: 4faa efbe 8b84 823d 57c2 c03e b56e 213c
000000e0: c13b 87bc 0448 e03d 85f9 fb3e 2bb5 163d
000000f0: ca09 d23c 89f9 c03c 2989 db3e 0620 59be
00000100: 4c48 0ebf 6040 1dbf 9ab8 4ebf 07b6 efbe
00000110: 7718 c03d b467 13bd 2fb5 573f d8e3 9bbc
00000120: 2938 4abe 9384 193e 326c f4be bae0 95be
00000130: fbc5 983e 91f3 46be aadb 0ebf 0daa cfbe
00000140: 8fbd f13e b376 f53d c59a 19bf 9fdd a4bd
00000150: b2fd cebd 5b28 993e 59f2 583f fe11 cf3e
00000160: 961b f9be 09da 87be f949 73bf aa77 65be
00000170: 010e ec3e 4157 f83e 4138 103f 506c b63e
00000180: 6421 5c3e b08e 443e e8fe a9bf c0fc d9ba
00000190: c29a 55be 529b 263e 8328 ea3e e3f0 953e
000001a0: e361 a93e 6bed 313f 5562 343f 7268 eb3e
000001b0: f06e c6be f6b8 b1be 2dbe 333e fec5 0d3e
000001c0: 8613 133f 9b03 c2bd 9eed a4bf 80c6 d8bd
000001d0: 5fc0 873e b70d c9be 86f8 99bf f8b8 3a3e
000001e0: e298 e93d 652d f83e 4aea 713e e338 39be
000001f0: f745 0b3e 6f05 273e 5bc8 65be 7100 043e
00000200: 9c6f 1f3d 0af4 fcbc 8e28 efbf f2e7 a1be
00000210: 700c 31be 8d8d e8bd 9f71 92bc 19f7 903e
00000220: d079 893e 68c7 d43e 6839 de3f 8266 b23e
00000230: 22b2 473f 5a33 263e 76db 11be 0390 a33d
00000240: edb5 573e 8353 233f 673f a73f 807f 083f
00000250: 50b9 413c 3433 3cbe 68f1 db3e 6ef2 e13e
00000260: b10f ffbc 17f0 383d 6fcc 62bf b95c 76be
00000270: 97e2 b93e 29d1 43bd 148b 6fbf 9544 fa3d
00000280: 6e9d db3e d35c 95bd 92d2 d83c b381 6cbd
00000290: dcc4 83bf 5285 27bd 0e06 1bbc 74df 6c3c
000002a0: ecf2 413e 8335 4fbe eba2 cbbf 780b f5be
000002b0: 44e7 de3d c26f 94be 2f6e cabe f2cb 33be
000002c0: e449 073b d1cc 023e d52b 783e 1e38 1e3e
000002d0: ecdc 623f 8b84 023f 6d85 983e fbf6 963e
000002e0: ceff 8c3e 4661 d73d 5272 243f ef7f 5dbb
000002f0: 0231 283d d5ba 243e 61a3 b33f 9b5a b93e
00000300: 4789 66be c628 c73e 0383 bd3f a83a 093f
00000310: 39fc ac3e 11e6 94be 01b4 54bf 1427 babe
00000320: 480a 1ebe 13b3 b9bd e65a 2f3f 3f1e f93d
00000330: c7b5 04bf 91d0 1abf 3bf1 57bf f294 debe
00000340: 87ec 023f 17a5 913d 8d23 b6bf aa96 4cbd
00000350: a907 1ebf 1245 a2be 4b61 8d3e 16af b03e
00000360: 668e 2c3f fbf1 1e3f 043a 763f 269d dd3e
00000370: bb44 82be 34c1 d03e 9c9b 5a3f 7617 ea3e
00000380: 6656 eabe a590 adbe 567c ab3f 19ec 7a3d
00000390: c447 85be c5e5 e0be ac4a 743f 10a1 0ebe
000003a0: fae9 3c3d 38d4 a03c 7359 113f 2515 4d3e
000003b0: 2068 00bf 2f94 663e 5f41 2f3f 321c 653e
000003c0: 542f 7fbd 9fb9 8d3e 5071 b03e afef 1fbe
000003d0: 0d7e 263f d889 c7be da40 24be 1771 b63e
000003e0: 2615 c13e 1034 88bd 0b19 a2be 494b 303e
000003f0: 2b97 b5be 7d6f 813e e3ad fc3e df14 d73e

sequential.0.bias f4 [64]
0.7441933 0.5983518 -0.5920307 -0.27726945 0.64228165 -0.29911488 -0.15351108 0.47784725
0.92571807 0.80049294 0.8962339 0.7705888 0.880417 -0.26874593 0.50581735 0.418796
-0.16427997 0.57853454 0.8774813 0.85161954 -0.4444925 0.94293535 0.06050606 0.076559626
0.12315484 0.5705866 -0.2976843 -0.30768728 0.114810415 0.9217195 0.41618395 0.5258914
-0.428054 0.9222553 -0.28203788 -0.08823247 0.1475907 -0.46799222 0.58160156 0.36370674
-0.17240119 -0.17924091 -0.19332427 0.5537668 0.59612983 -0.23890594 0.76932013 -0.25252038
-0.46176144 0.55974036 0.62117255 0.4510666 -0.2070657 -0.039317194 -0.42193183 -0.3081532
-0.1465674 0.5522162 0.6222052 -0.15859827 0.9105526 -0.49724457 0.2671741 0.88969374
00000000: 7483 3e3f 952d 193f 538f 17bf 43f6 8dbe
00000010: 926c 243f 9625 99be 0232 1dbe 65a8 f43e
00000020: dcfb 6c3f 1bed 4c3f 966f 653f 4f45 453f
00000030: 0263 613f 1199 89be 3f7d 013f 6e6c d63e
00000040: 0239 28be d71a 143f 9da2 603f bd03 5a3f
00000050: 8594 e3be 3664 713f 34d5 773d 4bcb 9c3d
00000060: 9b38 fc3d f711 123f 146a 98be 3089 9dbe
00000070: b921 eb3d cff5 6b3f 1016 d53e d2a0 063f
00000080: e529 dbbe ec18 6c3f 4567 90be 3ab3 b4bd
00000090: 0422 173e ad9c efbe d7e3 143f c537 ba3e
000000a0: f089 30be ee8a 37be ccf6 45be a9c3 0d3f
000000b0: f79b 183f c2a3 74be 2af2 443f 5a4a 81be
000000c0: ff6b ecbe 254b 0f3f 2a05 1f3f 34f2 e63e
000000d0: 0809 54be 110b 21bd 7307 d8be 42c6 9dbe
000000e0: c415 16be 0a5e 0d3f d748 1f3f 9667 22be
000000f0: fa19 693f d796 febe 0bcb 883e f8c2 633f

sequential.2.weight f4 [64, 64]
0.24818522 0.21149173 -0.37239972 -0.83063126 0.3614284 -0.5601418 -0.671902 0.13037217
0.28957438 0.2206823 0.29726696 0.32795873 0.24410874 -0.33317935 0.31144083 0.21370073
-0.15964563 0.28009647 0.24979685 0.32511926 -0.72948086 0.23403971 -0.51392716 -0.2422977
-0.24368837 0.20008276 -0.64990765 0.02299512 0.13464384 0.37014046 0.120215625 0.27287942
-0.5387435 0.40908787 -1.2868212 -0.28270656 -0.8506675 -0.16008405 0.39899486 0.29872945
-0.07006244 -0.39931157 -0.35138178 0.41205826 0.38863295 -0.2848394 0.30275255 -0.6313998
-0.90668374 0.23876505 0.23782471 0.10718889 -0.24427043 -0.15225993 -0.570096 -0.4912231
0.062110577 0.15371285 0.20700647 -0.32580465 0.24537612 -0.22241713 0.19109963 0.2798342
0.4647808 0.19907063 0.31583416 -0.52318656 0.39642426 -0.4405883 -0.31654942 0.27316713
0.30544704 0.2998177 0.33436027 0.45211136 0.18697254 -0.18478423 0.3159893 0.43523005
-0.38268164 0.41619793 0.26010838 0.3065612 -0.31315196 0.2786864 -0.47167197 -0.12304622
0.2114701 0.41493517 0.040168457 -0.11103623 0.26604694 0.27924487 0.2737814 0.31225717
-0.49944863 0.44159496 -0.89858145 0.07069932 -0.5829707 -0.0795509 0.3865998 0.24230632
0.34560707 -0.57724863 -0.24778512 0.34412825 0.45834678 0.0019019598 0.3509578 -0.09769036
-0.608595 0.11171432 0.2994061 -0.11107467 0.12088877 -0.039751206 -0.18520148 -0.53647846
-0.1826376 0.08333584 0.26545343 -0.46489972 0.3249529 -0.011425418 0.26432508 0.32930917
0.27408388 0.22867742 0.16188084 -0.46976513 0.01289186 -0.62040293 -0.7642904 0.2007133
0.08737765 0.029995508 0.028397435 0.08755988 0.15105782 -0.21935536 0.06405361 0.06120842
-0.27414018 0.08825476 0.0026636026 0.20396411 -0.26493114 0.17003347 -0.84102327 -0.30328596
-0.19504961 0.10937825 -0.25700364 -0.014162656 -0.04815537 0.13459182 0.07196868 0.13100292
-0.51307225 0.12973909 -0.5790964 -0.4999665 -0.86204326 -0.0108475145 -0.0017132034 0.09434208
0.12811439 -0.44765157 0.31615666 0.15528423 0.060599327 0.068162516 0.06204347 0.38965148
-0.17275532 0.08466921 0.18164854 0.013746269 -0.16937622 0.12100801 -0.3987751 -0.08404615
0.18195744 0.31429312 0.037965637 -0.5815185 0.20974408 0.073660105 -0.038548056 0.24522503
0.14210226 0.07017788 0.2764648 -0.2629344 0.25708905 -0.47080824 -0.16638105 0.08295589
0.33147463 0.24505915 0.24561122 0.30164 0.16163273 -0.3424182 0.07433687 0.17397526
-0.01515421 0.2437446 0.111627504 0.30777627 -0.2819445 0.17775595 -0.3826005 -0.025641112
0.00044233137 0.15427259 -0.12699679 -0.03907613 -0.11103237 0.24425587 0.19515125 0.21093412
-0.21571238 0.21026304 -0.559665 0.16208737 -0.1793525 -0.015596088 0.22183809 0.07471469
0.10148194 -0.2676134 -0.189147 0.18539892 0.19935723 -0.09511907 0.30207852 -0.13334504
-0.21049985 0.3072524 0.27645376 0.03142129 -0.118044786 0.21392104 -0.105438255 -0.55507535
0.05101298 -0.05868013 0.15635115 -0.13361691 0.10976032 -0.074887656 0.12065268 0.28806686
00000000: 4424 7e3e 4a91 583e 2dab bebe 40a4 54bf
00000010: 250d b93e 7465 0fbf c501 2cbf 4880 053e
00000020: 1843 943e 8afa 613e 6033 983e 35ea a73e
00000030: a4f7 793e 7c96 aabe 2c75 9f3e 5dd4 5a3e
00000040: 257a 23be ce68 8f3e bfca 7f3e 0876 a63e
00000050: 42bf 3abf 1ba8 6f3e bb90 03bf e31c 78be
00000060: 7289 79be 7fe2 4c3e 5960 26bf 4360 bc3c
00000070: 13e0 093e 0d83 bd3e 9c33 f63d dab6 8b3e
00000080: 18eb 09bf f773 d13e 8fb6 a4bf eabe 90be
00000090: 58c5 59bf 13ed 23be 0e49 cc3e 11f3 983e
000000a0: e67c 8fbd 9172 ccbe 50e8 b3be 4df9 d23e
000000b0: e6fa c63e 78d6 91be 6202 9b3e 6ba3 21bf
000000c0: 6d1c 68bf d37e 743e 5288 733e d985 db3d
000000d0: 0722 7abe 07ea 1bbe d0f1 11bf 9881 fbbe
000000e0: a967 7e3d e766 1d3e 81f9 533e decf a6be
000000f0: e143 7b3e 51c1 63be 9faf 433e 6e46 8f3e
00000100: c0f7 ed3e 2cd9 4b3e 04b5 a13e 8eef 05bf
00000110: 1ff8 ca3e ca94 e1be c412 a2be 90dc 8b3e
00000120: 8e63 9c3e b581 993e 4531 ab3e 247b e73e
00000130: bb75 3f3e 1438 3dbe 59c9 a13e 79d6 de3e
00000140: d9ee c3be e517 d53e ed2c 853e 97f5 9c3e
00000150: 7455 a0be fcaf 8e3e fd7e f1be a8ff fbbd
00000160: 9e8b 583e 6272 d43e ae87 243d f766 e3bd
00000170: 4e37 883e 2ff9 8e3e 132d 8c3e 2ce0 9f3e
00000180: bbb7 ffbe bc18 e23e 6f09 66bf ceca 903d
00000190: 913d 15bf 95eb a2bd 69f0 c53e 261f 783e
000001a0: 69f3 b03e 91c6 13bf 62bb 7dbe 9431 b03e
000001b0: 6eac ea3e 2e4b f93a beb0 b33e e211 c8bd
000001c0: e2cc 1bbf 7aca e43d c24b 993e 1e7b e3bd
000001d0: 8894 f73d 29d2 22bd 75a5 3dbe a756 09bf
000001e0: 5a05 3bbe fbab aa3d 83e9 873e 5607 eebe
000001f0: 3a60 a63e ad31 3bbc 9e55 873e 369b a83e
00000200: b954 8c3e 6a2a 6a3e 17c4 253e 0e85 f0be
00000210: 6138 533c bad2 1ebf 89a8 43bf ca87 4d3e
00000220: 0ef3 b23d 24b9 f53c bda1 e83c 9852 b33d
00000230: e7ae 1a3e b19e 60be 8a2e 833d aeb5 7a3d
00000240: 1a5c 8cbe e9be b43d d68f 2e3b f8db 503e
00000250: 0ea5 87be 411d 2e3e 4d4d 57bf 4c48 9bbe
00000260: 16bb 47be b401 e03d fb95 83be 7c0a 68bc
00000270: 913e 45bd 70d2 093e 5164 933d a125 063e
00000280: b458 03bf 53da 043e a93f 14bf 9cfb ffbe
00000290: deae 5cbf c6b9 31bc 918d e0ba 6c36 c13d
000002a0: 6b30 033e 9632 e5be 49df a13e d402 1f3e
000002b0: 0037 783d ca98 8b3d 4b21 7e3d 6680 c73e
000002c0: c5e6 30be 0d67 ad3d 1302 3a3e 0838 613c
000002d0: f670 2dbe 0cd3 f73d 402c ccbe 6320 acbd
000002e0: 0d53 3a3e 07eb a03e db81 1b3d 65de 14bf
000002f0: 27c7 563e 1cdb 963d 91e4 1dbd 451c 7b3e
00000300: 4183 113e 6cb9 8f3d cb8c 8d3e 569f 86be
00000310: 2da1 833e c70d f1be cb5f 2abe c7e4 a93d
00000320: 0bb7 a93e c9f0 7a3e 8281 7b3e 8f70 9a3e
00000330: 0d83 253e 7051 afbe ee3d 983d 9226 323e
00000340: 5d49 78bc 2f98 793e f69c e43d da94 9d3e
00000350: 085b 90be a805 363e 36e4 c3be 4f0d d2bc
00000360: b6e8 e739 a2f9 1d3e 720b 02be 4b0e 20bd
00000370: f064 e3bd 361e 7a3e bbd5 473e 1dff 573e
00000380: b5e3 5cbe 324f 573e 3546 0fbf 3bfa 253e
00000390: 2fa8 37be bc86 7fbc 8629 633e 0404 993d
000003a0: c3d5 cf3d a004 89be c0af 41be 37d9 3d3e
000003b0: 4d24 4c3e c9cd c2bd 09aa 9a3e 9a8b 08be
000003c0: 468d 57be 3050 9d3e 598b 8d3e 9cb3 003d
000003d0: 77c1 f1bd 1e0e 5b3e 03f0 d7bd 6b19 0ebf
000003e0: fdf2 503d 935a 70bd 841a 203e dfd2 08be
000003f0: 05ca e03d b35e 99bd c118 f73d 807d 933e

sequential.2.bias f4 [64]
0.46163252 0.219766 0.057213157 0.32405344 0.17627738 -0.0381456 0.099217154 0.32044086
0.10332346 0.16624694 0.29915434 0.16758806 0.26208654 0.3264408 0.19048883 -0.051821318
-0.11160741 0.022364521 -0.10645899 0.4187415 0.080374174 0.5059626 0.19355847 0.15575995
-0.0020973445 0.11382026 0.14201838 0.24778062 0.24214882 0.52850044 0.07046845 0.33971778
0.113622785 0.354345 0.38946196 0.06427326 0.12976 0.10740522 -0.16916762 0.1357231
0.06639647 -0.10813471 0.25631806 0.038511008 0.18477587 0.21964575 0.11628643 0.1962003
-0.26496097 -0.15740043 -0.07711464 0.17228132 -0.12927668 0.0823188 -0.19108751 0.24968441
0.377764 0.10738218 0.31019628 0.18631409 0.040628437 0.063910194 -0.2676738 0.37105325
00000000: 195b ec3e 570a 613e 5858 6a3d 55ea a53e
00000010: 0f82 343e 903e 1cbd 5d32 cb3d d310 a43e
00000020: 409b d33d a33c 2a3e c22a 993e 349c 2b3e
00000030: 3530 863e 4023 a73e 810f 433e 9742 54bd
00000040: 6d92 e4bd cd35 b73c 2c07 dabd 4965 d63e
00000050: 379b a43d c486 013f 3134 463e 897f 1f3e
00000060: 9a73 09bb 991a e93d 446d 113e 34ba 7d3e
00000070: dcf5 773e ce4b 073f c351 903d 7def ad3e
00000080: 10b3 e83d b56c b53e 8f67 c73e b3a1 833d
00000090: cedf 043e 45f7 db3d 473a 2dbe fffa 0a3e
000000a0: dffa 873d bb75 ddbd 1f3c 833e b8bd 1d3d
000000b0: e335 3d3e d1ea 603e 9427 ee3d bbe8 483e
000000c0: f7a8 87be 942d 21be 48ee 9dbd 846a 303e
000000d0: 1b61 04be c296 a83d 72ac 43be 45ad 7f3e
000000e0: 486a c13e 30eb db3d 0cd2 9e3e 1fc9 3e3e
000000f0: 016a 263d 59e3 823d 8a0c 89be b1fa bd3e

sequential.4.weight f4 [2, 64]
0.63840944 0.5632041 0.5194443 0.37520477 0.42663184 -1.0863086 0.3558586 0.46406493
0.670367 -0.7557668 0.5815055 -0.8007093 0.6113378 0.646209 0.29234788 -0.50506645
-0.5439292 -0.7600584 -0.5896466 0.64973104 -1.128986 0.6860187 -0.2149365 0.5120535
-0.7020623 -0.58273226 0.72243845 0.5119909 0.6827455 0.5897747 0.48712406 0.53002286
0.5424339 0.41557685 0.4773231 0.006077191 0.23913953 -0.9160458 -0.06875856 -0.6353995
-0.77400607 -0.42293423 0.53523463 0.52388316 -0.29006666 0.26907617 -0.73365325 0.10229031
-0.7328783 0.5867151 -0.712076 0.57001823 -0.69711506 -1.2981464 0.3262353 0.4748873
0.6484242 0.5841044 0.47754773 0.33030713 -0.4518567 -0.2763118 0.12552156 0.5465003
0.4055131 0.58325666 0.39128992 0.1672222 0.49388763 -1.0858319 0.8906679 0.5619958
0.60150224 -0.69693625 0.43772936 -0.98232704 0.50787306 0.57155526 0.61871576 -0.26359004
-0.94155693 -0.5634201 -0.9397091 0.49718276 -1.0860703 0.7569083 0.33845612 0.59885985
-0.83915204 -1.1429338 0.685287 0.28027993 0.75085753 0.66177326 0.59204674 0.4990254
0.50978106 0.2456318 0.47712573 -0.031183874 0.44727415 -1.0339751 -0.79611963 -0.12207705
-0.73645467 -0.2059806 0.56098 0.5834275 0.34464258 -0.49070626 -1.0054836 0.49826106
-0.89506465 -0.3114532 -0.6310723 0.5055937 -0.66099423 -0.94680214 0.34226915 0.2820719
0.643805 0.42468387 0.29238954 0.6349623 0.14682345 0.38683468 -0.8356977 0.34638324
00000000: cd6e 233f 252e 103f 4dfa 043f d71a c03e
00000010: 7d6f da3e 290c 8bbf 1933 b63e eb99 ed3e
00000020: 2c9d 2b3f ef79 41bf 8bdd 143f 49fb 4cbf
00000030: a280 1c3f f46d 253f 9fae 953e 094c 01bf
00000040: f23e 0bbf 3093 42bf 14f3 16bf c654 263f
00000050: 9d82 90bf ec9e 2f3f 5018 5cbe f015 033f
00000060: 5bba 33bf f12d 15bf baf1 383f d611 033f
00000070: 69c8 2e3f 7afb 163f 5368 f93e 94af 073f
00000080: f3dc 0a3f 7dc6 d43e b263 f43e 2c23 c73b
00000090: fee0 743e fa81 6abf 4ad1 8cbd 8ba9 22bf
000000a0: 4325 46bf d68a d8be 2305 093f 351d 063f
000000b0: 9e83 94be 5ac4 893e b3d0 3bbf 957d d13d
000000c0: ea9d 3bbf f632 163f 9d4a 36bf b7ec 113f
000000d0: 2276 32bf a929 a6bf 5008 a73e 6e24 f33e
000000e0: 21ff 253f de87 153f 2381 f43e 041e a93e
000000f0: c359 e7be be78 8dbe b988 003e 72e7 0b3f
00000100: 6a9f cf3e 4f50 153f 2757 c83e 4c3c 2b3e
00000110: d7de fc3e 8afc 8abf d002 643f f5de 0f3f
00000120: 0dfc 193f 6a6a 32bf 101e e03e c979 7bbf
00000130: f803 023f 7251 123f 2864 1e3f 46f5 86be
00000140: e009 71bf 4d3c 10bf c790 70bf bd8e fe3e
00000150: 5a04 8bbf bec4 413f 1f4a ad3e e14e 193f
00000160: abd2 56bf a84b 92bf f86e 2f3f da80 8f3e
00000170: 3338 403f f969 293f 6090 173f 4280 ff3e
00000180: 0381 023f e786 7b3e d349 f43e 5375 ffbc
00000190: 1e01 e53e 4c59 84bf 7fce 4bbf 8803 fabd
000001a0: 4b88 3cbf 94ec 52be 639c 0f3f 815b 153f
000001b0: fe74 b03e da3d fbbe b0b3 80bf 131c ff3e
000001c0: f522 65bf cb76 9fbe f48d 21bf 976e 013f
000001d0: eb36 29bf a061 72bf e73d af3e ba6b 903e
000001e0: 68d0 243f 2a70 d93e 15b4 953e e48c 223f
000001f0: e358 163e 320f c63e 49f0 55bf 2559 b13e

sequential.4.bias f4 [2]
0.21430421 0.2638948
00000000: 9072 5b3e 381d 873e

exp_avg f4 [64, 4]
-1.1829878e-06 1.9028499e-05 1.2815241e-07 -2.5169762e-05 -9.0170084e-07 1.4720986e-05 7.703412e-08 -1.9484633e-05
6e-45 -6e-45 6e-45 6e-45 -6e-45 -6e-45 -6e-45 6e-45
-1.0036565e-06 1.2484924e-05 1.9847323e-07 -1.6120432e-05 -6e-45 6e-45 -6e-45 -6e-45
-6e-45 -6e-45 6e-45 6e-45 -7.824606e-07 9.890034e-06 -7.181843e-08 -1.3438544e-05
-1.2681387e-06 2.0329817e-05 1.3898494e-07 -2.687622e-05 -5.753392e-07 9.22012e-06 9.239518e-08 -1.2348803e-05
-1.147916e-06 1.8716059e-05 1.0373436e-07 -2.4749555e-05 -1.2375596e-06 1.9872086e-05 1.2413689e-07 -2.6284602e-05
-1.0726444e-06 1.7489228e-05 9.708419e-08 -2.3138267e-05 -6e-45 -6e-45 -6e-45 -6e-45
-1.3218357e-06 2.1560636e-05 1.0928927e-07 -2.8470684e-05 -1.0930632e-06 1.7933799e-05 7.8926234e-08 -2.3685272e-05
-6e-45 -6e-45 -6e-45 6e-45 -1.2222456e-06 2.0015861e-05 9.077305e-08 -2.6440372e-05
-9.7366e-07 1.6089314e-05 1.0569132e-07 -2.1409593e-05 -1.2366156e-06 2.004459e-05 1.3703048e-07 -2.6581793e-05
-6e-45 -6e-45 -6e-45 6e-45 -1.2285288e-06 1.9722478e-05 1.2603098e-07 -2.605703e-05
2.4798464e-06 -2.6559901e-05 -2.21793e-06 3.313906e-05 7.8576886e-07 -1.4074643e-05 3.3680585e-08 1.8612083e-05
2.0845348e-09 2.6261955e-07 -1.2554158e-09 -1.3897866e-07 -1.262915e-06 2.032373e-05 1.3019812e-07 -2.6890137e-05
-6e-45 -6e-45 -6e-45 6e-45 -1.3605235e-08 -5.6085463e-07 3.8025686e-08 7.976721e-07
-2.515445e-07 4.927019e-06 -2.3518085e-08 -6.2794693e-06 -1.1147816e-06 1.7975291e-05 1.1920423e-07 -2.379713e-05
-3.427434e-07 6.951593e-06 1.0758509e-08 -8.92676e-06 -1.2869561e-06 2.0484833e-05 1.605148e-07 -2.71297e-05
2.73667e-40 -1.6643369e-38 7.78966e-40 2.501341e-38 -1.1637381e-06 1.8474462e-05 1.3568464e-07 -2.4455097e-05
-6e-45 -6e-45 -6e-45 6e-45 5.0172726e-08 -7.468704e-08 -1.8992964e-08 -2.1693078e-08
3.138185e-06 -5.208958e-05 -2.212789e-07 6.912964e-05 -9.760822e-09 -9.577874e-07 8.04829e-08 1.3928401e-06
-1.1196923e-06 1.8840097e-05 8.962438e-08 -2.5058378e-05 -7.9762793e-07 1.2801006e-05 8.670037e-08 -1.6936598e-05
6e-45 6e-45 6e-45 -6e-45 6e-45 6e-45 -6e-45 -6e-45
2.062421e-08 4.5969603e-08 -9.113727e-09 -1.0597966e-07 -1.2172826e-06 1.9567373e-05 1.2852212e-07 -2.589603e-05
-1.1927599e-06 1.9357056e-05 1.0229566e-07 -2.5577272e-05 -6e-45 -6e-45 -6e-45 6e-45
-1.1514044e-06 1.871171e-05 1.0196222e-07 -2.4736495e-05 4.51124e-10 -2.0781948e-07 1.0025158e-09 2.9785915e-07
-1.6039445e-07 -6.6514526e-06 2.735579e-07 9.7278535e-06 -9.810085e-07 1.640382e-05 1.0761885e-07 -2.1874826e-05
-1.2831803e-06 2.0772733e-05 1.06898405e-07 -2.743961e-05 -6.755655e-08 1.1529995e-06 4.612962e-08 -1.6760973e-06
6e-45 6e-45 -6e-45 -6e-45 3.3883513e-08 2.3325899e-07 -1.1230239e-08 -3.346072e-07
-6e-45 -6e-45 -6e-45 6e-45 -6e-45 -6e-45 6e-45 6e-45
1.7828674e-09 -2.3555837e-07 5.3770486e-09 3.509793e-07 -5.8939804e-07 9.412099e-06 7.0163374e-08 -1.24617745e-05
-9.953926e-07 1.6019296e-05 9.644474e-08 -2.1153242e-05 -4.303681e-09 -3.6225053e-08 4.109561e-09 5.510876e-08
-9.7968e-07 1.6140846e-05 7.0788666e-08 -2.1334245e-05 9.617489e-08 -1.3900881e-06 -2.1121675e-08 1.9694223e-06
-5.7318033e-07 6.696792e-06 -7.2279933e-09 -9.103207e-06 -1.2799359e-06 2.0399671e-05 1.5085023e-07 -2.6993195e-05
00000000: 27c7 9eb5 649f 9f37 449a 0934 a723 d3b7
00000010: 690c 72b5 27fa 7637 f56d a533 ee72 a3b7
00000020: 0400 0000 0400 0080 0400 0000 0400 0000
00000030: 0400 0080 0400 0080 0400 0080 0400 0000
00000040: 60b5 86b5 5776 5137 e81b 5534 5d3a 87b7
00000050: 0400 0080 0400 0000 0400 0080 0400 0080
00000060: 0400 0080 0400 0080 0400 0000 0400 0000
00000070: 480a 52b5 5fed 2537 993a 9ab3 1b76 61b7
00000080: ea34 aab5 f389 aa37 e43b 1534 3e74 e1b7
00000090: 0271 1ab5 1db0 1a37 ca6a c633 b42d 4fb7
000000a0: 1812 9ab5 6e00 9d37 91c4 de33 449d cfb7
000000b0: 391a a6b5 fbb2 a637 7d4a 0534 c17d dcb7
000000c0: c8f7 8fb5 d5b5 9237 997c d033 0d19 c2b7
000000d0: 0400 0080 0400 0080 0400 0080 0400 0080
000000e0: ee69 b1b5 1ddd b437 69b2 ea33 54d4 eeb7
000000f0: 5eb5 92b5 8a70 9637 287e a933 bcaf c6b7
00000100: 0400 0080 0400 0080 0400 0080 0400 0000
00000110: 0a0c a4b5 bce7 a737 03ef c233 44cc ddb7
00000120: b4ae 82b5 8af7 8637 6bf8 e233 c098 b3b7
00000130: caf9 a5b5 6e25 a837 a722 1334 f7fb deb7
00000140: 0400 0080 0400 0080 0400 0080 0400 0000
00000150: eee3 a4b5 b371 a537 2253 0734 0c95 dab7
00000160: 706b 2636 f4cc deb7 bfd7 14b6 cbfe 0a38
00000170: a0ed 5235 2222 6cb7 32a8 1033 2521 9c37
00000180: 863f 0f31 28fe 8c34 048b acb0 2a3a 15b4
00000190: 6e81 a9b5 e17c aa37 96cc 0b34 2192 e1b7
000001a0: 0400 0080 0400 0080 0400 0080 0400 0000
000001b0: 75bc 69b2 a38d 16b5 af51 2333 9c1f 5635
000001c0: 030c 87b4 c552 a536 d104 cab2 3bb4 d2b6
000001d0: 9b9f 95b5 a5c9 9637 38fd ff33 f39f c7b7
000001e0: 4b02 b8b4 bb41 e936 6cd4 3832 24c4 15b7
000001f0: 7abb acb5 d8d6 ab37 f959 2c34 9694 e3b7
00000200: dffa 0200 f13a b580 717b 0800 9b2f 0801
00000210: bd31 9cb5 9bf9 9a37 b6b0 1134 ec24 cdb7
00000220: 0400 0080 0400 0080 0400 0080 0400 0000
00000230: 7f7d 5733 a263 a0b3 f825 a3b2 9557 bab2
00000240: 9c99 5236 c37a 5ab8 ae98 6db4 b1f9 9038
00000250: 8db0 27b2 538d 80b5 f1d5 ac33 9ff1 ba35
00000260: 5648 96b5 cd0a 9e37 8677 c033 7534 d2b7
00000270: 931c 56b5 e7c3 5637 0830 ba33 1113 8eb7
00000280: 0400 0000 0400 0000 0400 0000 0400 0080
00000290: 0400 0000 0400 0000 0400 0080 0400 0080
000002a0: 1e29 b132 1d70 4533 9892 1cb2 ef96 e3b3
000002b0: 8361 a3b5 9d24 a437 e4ff 0934 4d3b d9b7
000002c0: eb16 a0b5 f660 a237 a2ad db33 c68e d6b7
000002d0: 0400 0080 0400 0080 0400 0080 0400 0000
000002e0: f489 9ab5 17f7 9c37 53f6 da33 3881 cfb7
000002f0: 0f02 f82f fc24 5fb4 e4c8 8930 73e9 9f34
00000300: e438 2cb4 8b2f dfb6 83dd 9234 d034 2337
00000310: 32ab 83b5 ef9a 8937 171c e733 d57f b7b7
00000320: bd39 acb5 1b41 ae37 0590 e533 1d2e e6b7
00000330: 9b13 91b3 c3c0 9a35 0e20 4633 44f6 e0b5
00000340: 0400 0000 0400 0000 0400 0080 0400 0080
00000350: 5187 1133 be75 7a34 1def 40b2 10a4 b3b4
00000360: 0400 0080 0400 0080 0400 0080 0400 0000
00000370: 0400 0080 0400 0080 0400 0000 0400 0000
00000380: 1209 f530 cbed 7cb4 05c1 b831 3a6e bc34
00000390: 2037 1eb5 a8e8 1d37 b9ac 9633 ea12 51b7
000003a0: 6e99 85b5 2d61 8637 0e1d cf33 3e72 b1b7
000003b0: 94df 93b1 de95 1bb3 1534 8d31 b9b0 6c33
000003c0: 8c7d 83b5 3466 8737 7b04 9833 f1f6 b2b7
000003d0: b488 ce33 1093 bab5 0e6f b5b2 6b2a 0436
000003e0: a7dc 19b5 01b5 e036 1a5a f8b1 fab9 18b7
000003f0: 43ca abb5 f61f ab37 65f9 2134 726f e2b7

exp_avg_sq f4 [64, 4]
7.649966e-11 5.736144e-09 1.9239553e-11 1.1728178e-08 4.6054098e-11 3.433571e-09 1.159888e-11 7.01604e-09
7e-43 3.579e-42 7e-43 7.563e-42 7.274543e-25 8.9423953e-26 3.2614188e-29 5.859666e-27
4.987279e-11 3.6731493e-09 1.2592051e-11 7.508756e-09 1.0119266e-21 4.8999093e-19 7.46181e-22 1.1702881e-18
4.665595e-15 4.7114175e-14 1.1817284e-14 6.123835e-14 3.7419356e-11 2.7710023e-09 9.305695e-12 5.6813714e-09
8.817135e-11 6.608281e-09 2.217637e-11 1.3511054e-08 1.4246261e-11 1.1188056e-09 3.5980494e-12 2.2976343e-09
7.514889e-11 5.6076392e-09 1.8925028e-11 1.1459809e-08 8.442153e-11 6.3090986e-09 2.1246463e-11 1.2895138e-08
6.512148e-11 4.861195e-09 1.6397153e-11 9.934583e-09 6.6247385e-25 9.9705535e-26 6.132981e-29 5.1038403e-27
1.02959516e-10 7.658252e-09 2.5958199e-11 1.5646357e-08 7.1676116e-11 5.3207736e-09 1.8084572e-11 1.0868446e-08
3.2640246e-20 2.842676e-18 2.837656e-20 2.6693877e-18 8.8910206e-11 6.6027463e-09 2.2426823e-11 1.348754e-08
4.8763195e-11 3.6938772e-09 1.2254277e-11 7.558875e-09 8.086196e-11 6.0903145e-09 2.0323472e-11 1.2456968e-08
4.5142057e-25 5.640791e-26 1.7617218e-29 2.93769e-27 8.4406995e-11 6.3077232e-09 2.1244784e-11 1.2892974e-08
3.8775547e-10 2.7680787e-08 8.720804e-11 5.7011203e-08 4.6971666e-11 3.4690688e-09 1.1792944e-11 7.094392e-09
1.0121265e-12 1.5147185e-10 3.843985e-13 3.239827e-10 8.7440936e-11 6.54493e-09 2.1999094e-11 1.3379249e-08
5.281186e-26 6.6622354e-27 1.9128016e-30 4.9444736e-28 4.121555e-14 1.6043228e-11 2.5638468e-14 3.1955345e-11
6.4055944e-12 7.0201417e-10 1.5446182e-12 1.461114e-09 6.734018e-11 5.051538e-09 1.6934192e-11 1.0328716e-08
2.1244539e-11 1.3453252e-09 5.282879e-12 2.758224e-09 8.608373e-11 6.497768e-09 2.1624456e-11 1.3294045e-08
5.1008515e-16 1.8865237e-12 4.1325217e-15 4.2611388e-12 7.135243e-11 5.360944e-09 1.7937606e-11 1.09629665e-08
1.5395549e-24 1.8848888e-25 7.165434e-29 1.22142716e-26 1.2295746e-12 4.7785257e-12 1.5766967e-13 9.974214e-12
5.494306e-10 4.108285e-08 1.3538667e-10 8.397876e-08 1.4731353e-13 6.4222405e-11 9.218989e-14 1.281703e-10
6.8550374e-11 5.1418043e-09 1.725026e-11 1.0510973e-08 3.4525823e-11 2.5886027e-09 8.6827915e-12 5.292675e-09
2.0256088e-26 2.5006494e-27 1.141635e-30 2.5322714e-28 1.2144949e-17 2.3545695e-16 1.5552319e-18 2.9059363e-16
1.4619938e-14 2.4503917e-12 1.5237608e-15 5.219376e-12 8.0551066e-11 6.0350644e-09 2.0261381e-11 1.2338124e-08
8.217401e-11 6.116387e-09 2.0707549e-11 1.2496692e-08 2.588248e-26 3.334551e-27 6.4455712e-31 1.2952613e-28
7.584402e-11 5.65271e-09 1.9105044e-11 1.1550623e-08 7.4224845e-15 1.0123757e-11 9.047841e-15 2.071975e-11
3.4800162e-14 5.9843214e-11 1.01224e-13 1.280019e-10 4.8499947e-11 3.693632e-09 1.218838e-11 7.562051e-09
9.558096e-11 7.106099e-09 2.4093704e-11 1.4517196e-08 7.0033985e-13 7.6089156e-11 2.1247267e-13 1.6149102e-10
2.8882318e-17 6.024542e-16 1.0925297e-17 7.649685e-16 5.2572526e-14 3.963185e-12 2.6068938e-14 7.5698085e-12
2.4030254e-25 2.9622562e-26 1.089279e-29 2.3048553e-27 2.3160237e-16 3.9773637e-13 6.7287376e-16 8.507456e-13
9.888922e-15 1.9023444e-12 3.716443e-15 3.5808437e-12 1.8293892e-11 1.377187e-09 4.5969808e-12 2.8170235e-09
5.6417697e-11 4.2075343e-09 1.4208673e-11 8.598596e-09 2.956492e-13 9.830487e-12 5.97808e-13 2.3458077e-11
5.7130047e-11 4.2446415e-09 1.4409181e-11 8.670822e-09 5.4418824e-14 2.1187174e-11 4.0595023e-14 4.119724e-11
1.7128158e-11 1.2672785e-09 4.090929e-12 2.6203613e-09 8.710316e-11 6.5499624e-09 2.189267e-11 1.3395986e-08
00000000: 7b39 a82e a817 c531 9f3b a92d 137d 4932
00000010: 4e8c 4a2e 05f4 6b31 b60c 4c2d be11 f131
00000020: f401 0000 fa09 0000 f401 0000 1515 0000
00000030: de22 6117 2a67 dd15 a35f 2510 1320 e813
00000040: c557 5b2e ba6a 7c31 8e85 5d2d dcff 0032
00000050: 04eb 981c ab9e 1021 f584 611c 3cb4 ac21
00000060: 8518 a827 f22e 5429 9ae1 5428 81e5 8929
00000070: 7392 242e fd6b 3e31 20b5 232d df35 c331
00000080: 0fe4 c12e 0e0f e331 bf10 c32d 3e1e 6832
00000090: 759f 7a2d 79c4 9930 b230 7d2c 69e4 1d31
000000a0: 1041 a52e 51ad c031 6077 a62d c6e0 4432
000000b0: 19a5 b92e 6bc7 d831 c8e2 ba2d 6b89 5d32
000000c0: 2234 8f2e 8607 a731 1b3b 902d c2ac 2a32
000000d0: 9606 4d17 e4db f615 537d 9b10 172f ca13
000000e0: 0e69 e22e 5991 0332 ab54 e42d b466 8632
000000f0: 119e 9d2e 05d2 b631 d612 9f2d eeb7 3a32
00000100: a323 1a1f a2c0 5122 2801 061f 4ff7 4422
00000110: ff83 c32e 5fde e231 b744 c52d d4b6 6732
00000120: 7a76 562e 60d7 7d31 5b94 572d 49dc 0132
00000130: 3dd1 b12e f942 d131 64c4 b22d 5302 5632
00000140: 39b5 0b17 c3a8 8b15 eaa8 b20f 6fbf 6813
00000150: ea9c b92e 52bb d831 00df ba2d e67f 5d32
00000160: bb2b d52f b2c6 ed32 c3c5 bf2e 7bdc 7433
00000170: 6595 4e2e 8164 6e31 b376 4f2d efc2 f331
00000180: b371 8e2b 898b 262f aa65 d82a 831c b22f
00000190: df48 c02e d0e1 e031 8e81 c12d 8fda 6532
000001a0: 7ec1 8215 8cf5 0314 562f 1b0e 56b2 1c12
000001b0: 4b9e 3929 231e 8d2d 48ee e628 858a 0c2e
000001c0: 7760 e12c dbf7 4030 bc62 d92b 61d0 c830
000001d0: 2715 942e cc91 ad31 69f4 942d 2c72 3132
000001e0: 73de ba2d 6ce6 b830 f2df b92c 318b 3d31
000001f0: d54c bd2e f942 df31 f235 be2d d463 6432
00000200: a405 1326 97c0 042c c9e3 9427 edec 952c
00000210: d9e7 9c2e 5d33 b831 e6c7 9d2d a357 3c32
00000220: 0e3c ee17 8356 6916 53aa b510 b7ed 7114
00000230: 180c ad2b 2221 a82c 3085 312a de77 2f2d
00000240: be06 1730 1273 3033 f6db 142f d057 b433
00000250: 3cdc 252a 003a 8d2e da97 cf29 bbec 0c2f
00000260: 6ebe 962e caab b031 22bc 972d c093 3432
00000270: 9fd8 172e 2ee3 3131 d1bf 182d ddda b531
00000280: 499b c814 321f 4613 aa3d b90d 7480 a011
00000290: e608 6023 50bb 8725 0083 e521 0d84 a725
000002a0: 48af 8328 556e 2c2c da98 db26 f6a3 b72c
000002b0: 3822 b12e fd5c cf31 9338 b22d a5f7 5332
000002c0: dbb3 b42e 4f28 d231 4125 b62d 08b1 5632
000002d0: f129 0015 5d18 8413 b62b 510d a231 2411
000002e0: 63c8 a62e c339 c231 bc0c a82d 2d70 4632
000002f0: 2bb6 0528 5919 322d cdfd 2228 bb40 b62d
00000300: dbb9 1c29 bc98 832e aaef e329 55bd 0c2f
00000310: 164e 552e 10d3 7d31 956b 562d 41ea 0132
00000320: 4c2f d22e e829 f431 33ee d32d 4e67 7932
00000330: ce20 452b 6352 a72e 1439 6f2a ae8f 312f
00000340: 3932 0524 46a5 2d26 4289 4923 b67c 5c26
00000350: ffc3 6c29 3271 8b2c e1ce ea28 632b 052d
00000360: 75bd 9416 0faf 1215 99ee 5c0f 059c 3613
00000370: 7a82 8525 dae7 df2a 52f1 4126 ae76 6f2b
00000380: 9a24 3228 97dd 052c 23e6 8527 bffa 7b2c
00000390: 2fea a02d 7647 bd30 ecbd a12c 9a95 4131
000003a0: ae20 782e dd91 9031 2df6 792d 06b9 1332
000003b0: 8a6f a62a 94f0 2c2d 9b44 282b e556 ce2d
000003c0: b742 7b2e 43d8 9131 2f7d 7d2d aef6 1432
000003d0: a214 7529 465d ba2d e0d2 3629 f82f 352e
000003e0: 2fa9 962d 662c ae30 d0ef 8f2c e211 3431
000003f0: b88a bf2e 140e e131 e991 c02d 2b24 6632
