save/Sep19_12-42-51_alpha=0.6, min_eps=0.01, eps_decay=0.2/checkpoint_final.pth (torch_old, 77772 bytes, 24 tensors)

sequential.0.weight f4 [64, 4]
000000 4d 35 cc be bd 57 02 3f 25 93 ba 3e ff 8f a2 3e
       -0.39884415 0.5091513 0.36440387 0.31750485
000010 7a d1 5f 3e ec 1e e3 bd 7e 45 b3 bf 56 54 8b 3d
       0.21857253 -0.11089882 -1.4005582 0.06803195
000020 45 06 8e 3e 53 51 81 be ba f7 a9 bc a7 2c 74 3d
       0.27739158 -0.25257358 -0.020748008 0.059612896
000030 c4 f8 1b 3f 48 b1 e8 3e 16 86 f2 3f 29 b0 f4 3e
       0.6092646 0.45447755 1.894717 0.4779065
000040 1a f2 9a 3d 93 2a a0 3e ae de 05 3f 3e 87 13 be
       0.075657085 0.31282482 0.5229291 -0.1440706
000050 2b f2 c4 be ae d8 17 bf a3 37 d8 bf 00 fd 2d bf
       -0.3846601 -0.59315 -1.6891979 -0.6796417
000060 32 0a 09 3f ae fe 8c 3e 47 6b da 3f 04 5b a2 3e
       0.5353118 0.27538055 1.7063988 0.31710064
000070 40 18 0c 3f ab f8 9f be c9 41 90 bf 45 cb 38 bd
       0.547245 -0.31244406 -1.1270076 -0.045115728
000080 73 d8 00 bc 51 2a 0a 3e 21 98 82 3f 92 91 f1 3e
       -0.0078641055 0.13492705 1.0202676 0.47181374
000090 71 3a b1 be a9 05 98 3e b2 24 01 c0 07 d3 6f be
       -0.346149 0.29691818 -2.0178647 -0.23420344
0000a0 f9 05 97 be 90 f9 50 3e 55 35 e5 3e b9 c6 31 be
       -0.29496744 0.204077 0.44767252 -0.17360963
0000b0 73 c9 2d be 44 0c 76 be 6b 95 0d 3f cc e4 fd 3d
       -0.16971378 -0.24028116 0.5530612 0.12397155
0000c0 8f 44 d5 be 11 c6 15 3f 57 bd 42 3d 01 f8 32 3e
       -0.4165387 0.5850535 0.04754385 0.17477418
0000d0 52 38 1a bf 0d a4 df bc 71 4a 23 3f 6c 79 eb 3c
       -0.6024219 -0.027299905 0.63785464 0.028744422
0000e0 ae 73 27 3a e3 c4 9e 3d 2b 35 53 3f 1f 35 99 3d
       0.0006387782 0.07752397 0.82503 0.07480835
0000f0 22 09 cc bc 9e b5 b8 3c 3f 39 c6 3e b1 76 48 be
       -0.024906699 0.02254754 0.3871555 -0.19576527
000100 79 8f 1b bf 75 3a 0e bf 7a 07 80 bf 91 aa fa be
       -0.60765797 -0.5555795 -1.0002282 -0.48958257
000110 8c ab ef 3d 41 15 ab bd 10 58 9e 3f ac 87 e1 3c
       0.11702642 -0.08353663 1.2370625 0.027530514
000120 60 b4 c1 be 3e 60 0e 3e a5 13 89 bf d6 16 9e be
       -0.37832928 0.13903901 -1.070912 -0.30876797
000130 c4 46 9c 3e 57 f0 15 be b4 2e 7e bf 06 b6 de be
       0.3052274 -0.14642464 -0.99290013 -0.43498248
000140 18 f4 f0 3e c3 76 f2 3d 0f 36 19 bf 25 dd a1 bd
       0.4706123 0.11839058 -0.5984811 -0.07903508
000150 6e d3 ba bd 0d a8 7c 3e c8 7c 98 3f 3a ac e6 3e
       -0.09122358 0.24673481 1.191308 0.45053273
000160 98 62 c9 be 1d fe 4e be f4 82 d4 bf b2 ac 7d be
       -0.39333034 -0.20214124 -1.6602464 -0.2477291
000170 a0 3b e0 3e 77 ee cd 3e 4e ae d5 3f f6 30 ec 3e
       0.4379549 0.40220997 1.6693819 0.46131104
000180 6e 47 88 be 0b d7 40 3e 13 a8 1c c0 da b8 e1 bd
       -0.26616997 0.18832032 -2.4477584 -0.11021586
000190 e6 49 5e be 09 b6 c4 3d f6 b3 34 3f 9d 1b b0 3e
       -0.21707878 0.09605033 0.705871 0.34396067
0001a0 9d 3a 05 3f f0 fc d0 3e ef 3e f6 3f 34 f4 04 3f
       0.5204256 0.40817976 1.9237956 0.51935124
0001b0 ef a8 f2 bc f3 75 19 bf a6 1d 43 3e c2 4b a1 3e
       -0.02962157 -0.599456 0.19054279 0.3150311
0001c0 e3 38 5a be dc 54 6b bc 38 e6 c2 bf d7 f7 53 be
       -0.21310763 -0.014363494 -1.5226507 -0.20700012
0001d0 6d 28 b9 3e 4e 88 9d be 9a 0f cd bf 22 92 08 3e
       0.36163655 -0.30768055 -1.6020386 0.13336995
0001e0 50 36 40 3a b6 14 fe 3e 47 0a 13 be bd ed 96 be
       0.0007332312 0.49625176 -0.14359389 -0.29478255
0001f0 b1 4e 02 3e dc 69 2a 3e e6 e9 0e be 5c b7 06 3e
       0.12725331 0.16641945 -0.13956413 0.13155884
000200 74 7c 5e be 8b 33 04 3d da c8 0c c0 95 ac a4 be
       -0.21727163 0.032275718 -2.199759 -0.3216292
000210 d2 bc 3d be b0 dd d8 bd f3 9b 5b 3c c4 a6 8e 3e
       -0.1852906 -0.105891585 0.01340388 0.27861607
000220 29 07 37 3f 42 44 d7 3e 56 04 0f 40 5a f4 ee 3e
       0.714953 0.42044264 2.2346396 0.466708
000230 7e e4 39 3f b1 91 9d 3e b3 57 4d 3f c6 69 6c 3d
       0.72614276 0.30775216 0.80211943 0.05771806
000240 4f f5 49 3e c5 8e 09 3f ba c2 be 3f 7c e4 09 3f
       0.19722484 0.53733474 1.4903176 0.53864264
000250 5f 40 33 3f 2d 18 d4 bd 73 40 a7 3f 3f 56 c3 3e
       0.700201 -0.10356174 1.3066543 0.38151738
000260 b8 15 54 be 44 67 d2 3c 36 bc c1 bf 1b 72 6e be
       -0.2071141 0.025684007 -1.5135562 -0.23285715
000270 bf 33 c6 3e d1 07 69 bc 52 5d bb bf 45 bb 2d 3e
       0.38711354 -0.014223055 -1.4637854 0.16965969
000280 44 75 0e 3f 33 77 c6 bc b6 9f d7 be c0 88 88 bd
       0.55647683 -0.02422676 -0.42114037 -0.06666708
000290 d4 fb 84 bf c8 63 33 bd a1 ed dd b9 06 14 ca 3c
       -1.0389352 -0.04379633 -0.00042329452 0.024667751
0002a0 bd 6a 1b 3e ab f2 2f be bc e4 f5 bf 82 87 fe be
       0.15177436 -0.17182414 -1.9210429 -0.4971276
0002b0 6f c8 23 3e c9 f8 4d be b2 1e 35 bf 0d 21 6f be
       0.15994428 -0.20114435 -0.7074996 -0.23352452
0002c0 88 e9 6d bc c6 32 b2 3d ea b8 03 3f fd 26 44 3e
       -0.01452101 0.087010905 0.5145403 0.19155498
0002d0 ab f4 f7 3e 14 e4 31 3f de 13 a2 3e 61 a7 63 3e
       0.48428854 0.69488645 0.31655782 0.22231819
0002e0 41 3a 99 3e 8b 87 d8 3d 98 bf 5f 3f 26 cf 12 3c
       0.29927257 0.10572728 0.87401724 0.008960521
0002f0 31 d5 ef 3e 84 cc 94 3e 78 5d 33 40 70 10 ef 3e
       0.4684234 0.29062283 2.8025799 0.46692228
000300 db 6d 56 3e 5f 73 ce 3e 00 88 07 40 4f b2 16 3f
       0.20940344 0.40322396 2.1176758 0.5886583
000310 a0 3a ca 3d 42 b4 86 be 2a e5 d6 bf 08 4b d0 be
       0.09874463 -0.263094 -1.6788685 -0.40682244
000320 53 e1 29 be 0d cf 0f be fd f9 6f 3f b6 21 27 3e
       -0.1658986 -0.14043827 0.93740827 0.16321453
000330 e3 28 8a bf 2e 3a 24 bf a8 47 fc bf d6 a8 01 bf
       -1.0793728 -0.64151275 -1.9709368 -0.5064825
000340 8f 38 00 be 06 9e 3a 3e b3 85 fb bf 11 f9 7c bd
       -0.12521575 0.18224344 -1.9650177 -0.061760966
000350 9f 43 89 bf 86 5b f9 be e5 d3 3a 3e 06 34 b1 3e
       -1.0723761 -0.4870264 0.18244894 0.34610003
000360 2c e4 20 3f 68 b8 09 3f 1b 69 de 3f 23 18 06 3f
       0.6284816 0.53797007 1.7375826 0.5238058
000370 fe 42 99 3e c8 d3 ef 3e ef 6f b1 3f 46 a9 06 3f
       0.29933923 0.46841264 1.3862284 0.5260204
000380 70 7d f0 be d0 30 4c be a5 78 c4 3f 8d 46 d6 bc
       -0.469707 -0.19940495 1.5349318 -0.026156688
000390 1d 72 3f be c1 44 08 bf 04 ee 92 3f 6f c9 b1 bd
       -0.18695875 -0.5322991 1.1478887 -0.086809985
0003a0 77 cd cb 3d ca 22 09 bd 8f a6 7b 3f f3 b3 80 3e
       0.09951299 -0.033480443 0.98301023 0.2513729
0003b0 fe ee ee be 2e b1 4b 3e ef bc 62 3f 19 af 99 3e
       -0.46666712 0.19891807 0.8856954 0.300164
0003c0 8e f0 39 bd 31 28 a4 3e a8 b6 68 3e 4f a1 2e be
       -0.045395426 0.32061914 0.22725928 -0.17053722
0003d0 f9 f0 2f 3f 5d aa 72 be 20 34 cb 3e 24 e8 78 3e
       0.6872707 -0.23697801 0.39688206 0.24307305
0003e0 02 70 00 3f f9 d4 83 3d 9d 8c 0d bf df ff ee 3d
       0.5017091 0.06437106 -0.55292684 0.11669897
0003f0 de f4 be be ca bb 57 3e 0c 9c 2d 3f 7a 4c e9 3e
       -0.37296194 0.2106773 0.67816234 0.4556616

sequential.0.bias f4 [64]
000000 96 05 40 3f 01 fe 16 3f 8a aa 22 bf e4 9d c0 be
       0.75008523 0.5898133 -0.6354147 -0.3762046
000010 d8 df 29 3f af 25 fb be 07 32 9b be ec ce e3 3e
       0.66357183 -0.49052188 -0.30311605 0.44493806
000020 06 c9 71 3f f7 48 4d 3f 1f c9 64 3f 86 d6 46 3f
       0.9444736 0.8018946 0.89369386 0.77671087
000030 2b 27 61 3f d0 3a 89 be 19 92 05 3f d7 45 da 3e
       0.8795039 -0.26802683 0.5217605 0.4263141
000040 27 2d b5 be cc 75 18 3f 71 d1 5e 3f 36 d8 58 3f
       -0.3538601 0.59554744 0.8703833 0.8470491
000050 44 56 e4 be 7a d8 75 3f 59 06 58 3e e1 db 31 3e
       -0.44597065 0.9603344 0.21096171 0.17369033
000060 2b 5f 53 3e 30 78 16 3f d6 83 1e be eb f0 ed be
       0.20641772 0.5877714 -0.15479979 -0.46472868
000070 5a e0 c3 3e e9 49 69 3f 11 7a d0 3e 6e 8f 07 3f
       0.38257104 0.911284 0.4071813 0.5295323
000080 7c e3 12 bf 58 fa 6c 3f b4 09 d2 be d7 23 92 be
       -0.57378364 0.92569494 -0.41023028 -0.2854297
000090 f9 00 a4 3e 10 77 27 bf a9 73 15 3f 00 40 ca 3e
       0.32031992 -0.6541605 0.5837961 0.39501953
0000a0 dd 60 8d bd 64 73 79 be 4f f9 a1 be 06 bb 0b 3f
       -0.06903241 -0.24360424 -0.3163552 0.5458225
0000b0 53 82 1c 3f b6 3d f0 be cf 48 47 3f 11 7f 59 be
       0.6113636 -0.46922082 0.7784547 -0.21239878
0000c0 e5 17 ef be fa 17 13 3f a6 ce 22 3f 92 3b f6 3e
       -0.46697918 0.5745846 0.6359657 0.48092324
0000d0 e6 d9 85 be b5 b1 94 3e fc 3b b8 be 08 21 bf be
       -0.26142806 0.2904183 -0.35983264 -0.37329888
0000e0 ee 61 b4 be 2e c8 1d 3f 0f 92 24 3f df 46 b2 be
       -0.35230964 0.61633575 0.6428537 -0.34819695
0000f0 5c 9a 67 3f 0c a4 45 bf 53 1e 93 3e e2 d2 66 3f
       0.9046991 -0.7720344 0.28734073 0.9016553

sequential.2.weight f4 [64, 64]
000000 ee 0e 72 3e 96 25 45 3e 5f f1 18 bf 57 71 15 c0
       0.23638508 0.19252619 -0.59743303 -2.3350427
000010 ca a5 b5 3e d3 91 94 bf d8 6e 0a c0 5a 24 ea 3d
       0.3547805 -1.1607002 -2.1630154 0.11432715
000020 fb 1a 82 3e 87 1a 79 3e 7e a3 9a 3e 01 c5 98 3e
       0.2541121 0.24326526 0.3020286 0.29837802
000030 f2 84 79 3e b0 da 30 bf da d6 96 3e 1c 73 67 3e
       0.24367121 -0.6908369 0.29460794 0.22602504
000040 29 9c 64 be 23 5e 83 3e 28 38 89 3e 2f 0b ad 3e
       -0.22325195 0.25657758 0.26800656 0.33797595
000050 91 4f 3a bf 66 55 50 3e 18 e9 30 bf 14 d0 65 be
       -0.7277766 0.20345077 -0.6910567 -0.22442657
000060 13 47 b9 be b8 85 27 3e 08 68 73 bf e9 b1 04 be
       -0.36187038 0.16359603 -0.95080614 -0.12958492
000070 15 d0 81 3d 88 fa b0 3e 73 d9 f1 3d 03 85 84 3e
       0.063385166 0.3456614 0.11809053 0.2588273
000080 bf f9 9b bf f1 57 c2 3e 0c eb 44 c0 04 6a be be
       -1.2185591 0.3795772 -3.0768461 -0.37190259
000090 38 cc 84 bf a8 84 0e bf ce 2b d8 3e 45 af 8f 3e
       -1.0374823 -0.5567117 0.4222092 0.28063408
0000a0 71 b0 8f bd 00 0a f5 be 80 15 a2 be 48 ae d2 3e
       -0.070160754 -0.47859192 -0.31657028 0.4114859
0000b0 8b ed ba 3e 2d 7a c2 be b2 52 94 3e fd 53 a4 bf
       0.36509356 -0.37983838 0.28969342 -1.2838131
0000c0 51 c3 1e c0 ad cc 84 3e 0a 8a 51 3e 98 e3 03 3e
       -2.4806712 0.25937405 0.20462814 0.12879789
0000d0 70 9d 24 be 07 8c 87 be 24 89 b1 bf e3 08 fe bf
       -0.16075683 -0.2647402 -1.3869977 -1.9846462
0000e0 06 55 48 bf 1c 3e fe 3d c9 75 2e 3e fc 87 a0 bf
       -0.78254735 0.1241419 0.17037119 -1.2541499
0000f0 12 94 81 3e 78 bc db be 18 72 27 3e 60 a1 7f 3e
       0.2530828 -0.42917228 0.16352117 0.24963903
000100 3a eb ed 3e 88 ac 44 3e 9d 26 b5 3e 3f 15 de bf
       0.46468526 0.1920644 0.35381022 -1.7350234
000110 f2 e2 c0 3e 1a 82 86 bf b8 1c c0 bf 76 a0 88 3e
       0.37673146 -1.0508454 -1.5008764 0.26684922
000120 53 04 97 3e 06 17 9b 3e f9 8a aa 3e bf ac df 3e
       0.29495487 0.30291003 0.33309153 0.43686482
000130 c0 9d 42 3e ae 00 1c bf a6 f7 9d 3e 9f ae dd 3e
       0.1900549 -0.6093854 0.30853003 0.43297288
000140 1a 0f f9 be 49 b0 ce 3e 0b b1 85 3e 4e ac 9c 3e
       -0.48644334 0.4036887 0.26111636 0.30600208
000150 ff 7c 9f be 9e 57 8a 3e ab 19 2e bf 1a e0 14 be
       -0.31150052 0.27019972 -0.68007916 -0.14538613
000160 d5 8a f0 3d 4a 33 ce 3e d0 ca 86 3d 5f 00 5b be
       0.1174523 0.40273505 0.06581652 -0.2138686
000170 f8 26 5e 3e fd c0 89 3e 23 33 8b 3e 7e 93 9e 3e
       0.21694553 0.2690505 0.27187452 0.30971903
000180 55 83 9a bf 67 fa db 3e 9e 82 19 c0 af ba 77 3e
       -1.2071329 0.4296448 -2.3985972 0.24192308
000190 70 58 31 bf dd 0e 23 be be a9 c7 3e 6d 2d 6b 3e
       -0.6927557 -0.15923639 0.3899669 0.22966547
0001a0 5b 1b ee 3e bb 7c 30 bf 04 da d6 be 50 e9 ac 3e
       0.46505246 -0.68940324 -0.41963208 0.33771753
0001b0 95 4f e6 3e f6 8c 0e be 0c 46 b1 3e 84 e3 8b be
       0.4498259 -0.1392096 0.34623754 -0.27322018
0001c0 9c 7d fc bf 5a 76 e1 3d 85 2f 91 3e 33 38 e8 bd
       -1.9725833 0.11008902 0.28356567 -0.11338844
0001d0 08 49 e3 3d be b5 dc bd ae 27 2f bf 54 65 ea bf
       0.11097914 -0.10776852 -0.6841992 -1.8312173
0001e0 ac 44 82 bf 7a 46 7c 3d a2 ef 80 3e 9e 2f 94 bf
       -1.0177207 0.06159065 0.25182825 -1.1577032
0001f0 12 7f a7 3e 49 a2 d9 bb df da 83 3e ef df a3 3e
       0.32714134 -0.0066416604 0.25752923 0.32006785
000200 e6 1c 96 3e 59 f4 78 3e 97 6e 8b bc fd c7 f0 bf
       0.29318923 0.24311961 -0.017020507 -1.8811032
000210 8e 79 51 3c 1f 3f 97 bf 66 15 0a c0 b8 d2 5a 3e
       0.012785329 -1.1816138 -2.157556 0.21369445
000220 87 15 c8 3d 5e b6 5b 3d ea 9d 52 3d 3c 8c d2 3d
       0.09769731 0.053640716 0.05142013 0.10280654
000230 4a d9 30 3e a1 6d 01 bf 5f 63 a3 3d c9 37 a9 3d
       0.17270389 -0.50557905 0.07977938 0.08262593
000240 1d 33 87 be cb d0 cf 3d f4 a9 ea 3c 09 1f 68 3e
       -0.26406184 0.10147246 0.028645493 0.22668089
000250 c3 c8 86 be 6c 6c 3a 3e 1b d1 7c bf 3f fe 64 be
       -0.26325044 0.18205422 -0.9875657 -0.22362612
000260 98 7c 9c be 0c 55 fa 3d 8f 26 c6 be ed 92 09 bd
       -0.30563807 0.12223253 -0.38701293 -0.033587385
000270 5d 2f e6 bd ac f7 17 3e 33 09 8e 3d 63 71 15 3e
       -0.112395026 0.14840573 0.06935348 0.14594035
000280 67 d1 99 bf 07 e8 13 3e 30 e7 12 c0 1a 32 01 bf
       -1.201703 0.1444398 -2.2953606 -0.50467074
000290 8a 7d 76 bf b7 22 74 be d6 65 d1 3c 60 a4 c4 3d
       -0.9628531 -0.23841368 0.025561254 0.096016645
0002a0 de 9e 28 3e 55 93 e6 be d9 e6 9a 3e c8 c9 33 3e
       0.16466853 -0.4503428 0.30254248 0.17557442
0002b0 7d a2 99 3d f0 ac 1b bd c2 1c 9b 3d ba b6 39 bd
       0.07501695 -0.038006723 0.075738445 -0.045340277
0002c0 27 3d bf bf 9a ff dc 3d 0d 60 48 3e 64 5e 55 3d
       -1.4940537 0.1079094 0.1956789 0.05209197
0002d0 64 d0 e6 bd 11 f9 ec 3d 23 c3 87 bf e0 a7 a7 bf
       -0.11270216 0.11570943 -1.0606426 -1.3098106
0002e0 19 54 0a bf 85 9d aa 3e 3b f3 43 3d 7c 04 b7 bf
       -0.5403457 0.33323303 0.047839385 -1.4298244
0002f0 b9 df 6c 3e 6f 43 18 bd 13 8f 00 bd 8b 0e 85 3e
       0.23132218 -0.037173685 -0.031386446 0.25987658
000300 76 bf 15 3e 13 12 90 3d d2 b6 a4 3e a0 ef cb bf
       0.14623818 0.070346974 0.3217073 -1.5932503
000310 fb f3 83 3e 78 2f 88 bf c8 7b bf bf ae 9c b2 3d
       0.2577208 -1.0639486 -1.495965 0.087212905
000320 7c 90 a0 3e d9 28 8e 3e 0b 92 85 3e f9 3a 92 3e
       0.31360233 0.2776554 0.26087984 0.28560618
000330 f3 f1 33 3e 82 65 26 bf b4 8f 90 3d 54 ac 46 3e
       0.17572765 -0.6499864 0.07058659 0.19401675
000340 6f cc 6f bd 87 40 6e 3e 88 24 0e 3e 58 2a a9 3e
       -0.058544572 0.23266803 0.13881123 0.33040118
000350 7f 8c 8f be f3 29 28 3e ec 4a 09 bf d8 fd 15 3e
       -0.28036878 0.16422252 -0.53629947 0.14647615
000360 5b 41 04 be 91 ae 08 3e 26 ee ba be a3 36 68 bd
       -0.12915556 0.13347842 -0.36509818 -0.05669273
000370 22 87 45 be 4d 8e 73 3e 60 f6 44 3e 3f 5b 5a 3e
       -0.1928983 0.23784752 0.1923461 0.2132387
000380 a6 2e 64 bf c4 b2 49 3e f5 09 0b c0 f5 5a 01 3e
       -0.8913368 0.196971 -2.1724827 0.12632354
000390 4a ee 97 be 68 7a b5 be 45 b8 82 3e 0e 1d ba 3d
       -0.29673988 -0.3544495 0.25531211 0.09087573
0003a0 20 c8 1a 3d cf e6 a6 be a4 9f 85 bd 2e 75 4a 3e
       0.03778851 -0.32597968 -0.0652459 0.19771263
0003b0 80 0e 43 3e 7c e4 1d be 91 d3 9b 3e 2a 05 5e bf
       0.190485 -0.15419191 0.3043485 -0.8672663
0003c0 eb 2b ce bf 86 b4 ad 3e ff 4d 83 3e b0 d8 80 3d
       -1.6107153 0.3392679 0.25645444 0.0629133
0003d0 7e d5 e4 bb 6b ca 47 3e 46 e9 4f bf 1d a4 f0 bf
       -0.006983458 0.1951081 -0.8121532 -1.8800083
0003e0 69 1f 77 bf 2c d4 a3 bd 08 6b 0a 3e 40 3b 7f bf
       -0.96532303 -0.07999453 0.13517392 -0.99699783
0003f0 fd 5d 04 3e cf ac 28 be b4 a4 03 3e 9e 81 8c 3e
       0.12926479 -0.16472171 0.12855798 0.2744264

sequential.2.bias f4 [64]
000000 a8 65 e7 3e b4 7b 5b 3e fa c2 9b 3d d2 0a a8 3e
       0.45194745 0.21433908 0.07605548 0.32820755
000010 95 a1 56 3e a1 10 9d bd c0 d3 c6 3d 44 79 a1 3e
       0.20960076 -0.07669187 0.09708357 0.3153783
000020 17 4c 1b 3e 1f c0 da 3d 55 64 98 3e 9b cd b0 3d
       0.15165745 0.106811754 0.29764047 0.08632966
000030 05 cc 84 3e df 64 a5 3e 3e f6 35 3e 4b ff 68 bd
       0.25936905 0.3230352 0.17769715 -0.05688409
000040 0b 34 53 be c7 4d 10 3e 63 87 05 be 77 96 d5 3e
       -0.20625322 0.1409217 -0.13039927 0.41716358
000050 76 dc 78 3c 4d f3 ff 3e 92 b6 2e 3e ff 9f 23 3e
       0.015189281 0.4999031 0.17061833 0.15979002
000060 07 e2 0a 3d 88 f7 dd 3b 24 81 51 3e f6 15 80 3e
       0.033906963 0.006773893 0.2045942 0.25016755
000070 c4 9d 6f 3e c8 b5 05 3f 20 cb a6 3d c5 ce ab 3e
       0.23400027 0.522305 0.08144212 0.3355619
000080 ac df df 3d ec 26 b6 3e 7c dc c4 3e 1d a0 83 3d
       0.10931334 0.3557657 0.38449466 0.064270236
000090 9a 2d fb 3d 12 65 eb 3c e7 81 35 be e1 b2 40 3e
       0.12264557 0.028734718 -0.17725335 0.18818237
0000a0 ec 7e 87 3d 7d 85 b4 be 28 69 80 3e 65 4e 86 3d
       0.06616005 -0.35258093 0.25080228 0.06557921
0000b0 c7 2b 1d 3e d1 36 7c 3e 63 5f 18 3d a1 c6 46 3e
       0.15348731 0.24630286 0.037200343 0.19411708
0000c0 c5 aa 87 be e0 72 2c be 78 38 8b bd 67 b9 5c 3e
       -0.26497474 -0.16840696 -0.0679788 0.215551
0000d0 7b 5d 00 be 90 4d cc bc 13 ad 43 be 9c 77 80 3e
       -0.1253566 -0.024939328 -0.19108991 0.25091255
0000e0 43 68 bd 3e 19 11 d4 3d d0 4d 9f 3e 14 8b 32 3e
       0.36993608 0.103548236 0.31114054 0.17435867
0000f0 63 5b b2 3c 0e 95 3c 3d 73 24 7a be ce 41 be 3e
       0.021772092 0.046040587 -0.24427967 0.3715958

sequential.4.weight f4 [2, 64]
000000 26 00 3e 3f 11 b5 1a 3f aa 18 2e 3f b7 5c e3 3e
       0.74218976 0.60432535 0.68006384 0.44406673
000010 47 5c 16 3f 97 a7 e5 bf 1c 4f db 3e 39 b8 0e 3f
       0.58734554 -1.7941769 0.42833793 0.5574985
000020 be 06 59 3f 23 63 bf bf 29 a2 21 3f 0a aa c6 bf
       0.8477591 -1.4952129 0.6313806 -1.5520642
000030 91 26 2b 3f 36 70 34 3f 6f f8 a6 3e 8b 40 a3 bf
       0.6685572 0.7048372 0.32611415 -1.2754072
000040 2e 04 00 bf 7f f8 1c c0 7e a4 2e bf c8 08 30 3f
       -0.5000638 -2.452667 -0.68219745 0.687634
000050 cb 0c ed bf 67 c2 3a 3f 6c 02 ac be 34 65 23 3f
       -1.8519529 0.72952884 -0.33595598 0.638263
000060 61 de ce bf 5e cb 8d bf 3f 81 63 3f 1e bd 11 3f
       -1.6161615 -1.1077688 0.8886909 0.56929195
000070 3d b4 45 3f 9f 03 20 3f f9 8d 1b 3f c6 dc 12 3f
       0.77228147 0.62505525 0.6076351 0.57368124
000080 d8 17 1e 3f c7 25 f8 3e 94 0c 06 3f 59 22 c7 3b
       0.6175513 0.48466322 0.5236294 0.0060770926
000090 6f 2e 95 3e 26 ee d4 bf f4 8f 87 bd 8c 1d 8c bf
       0.2913699 -1.6635177 -0.06619254 -1.0946517
0000a0 da f4 ed bf 0f 2b 7b bf 9b 22 13 3f 7d a1 28 3f
       -1.8590348 -0.9811258 0.5747468 0.6587141
0000b0 05 dd d3 be e6 ef da 3e 14 54 ba bf 76 50 eb 3d
       -0.41379562 0.42761153 -1.4556909 0.11489956
0000c0 45 9b 3b bf 00 f3 79 3f ec 02 df bf cc d9 44 3f
       -0.732838 0.97636414 -1.7422767 0.7689483
0000d0 5a ea d4 bf 4b e3 02 c0 5c 07 a7 3e a9 94 07 3f
       -1.6634018 -2.0451229 0.32622802 0.5296121
0000e0 1e c0 3e 3f 45 fc 35 3f 3b cc 09 3f 68 6a bb 3e
       0.745119 0.7108806 0.53827256 0.3660462
0000f0 be ac 10 bf 60 f2 cf be 7c 23 86 3d ee 0b 1b 3f
       -0.56513584 -0.40614605 0.06549737 0.6056508
000100 86 33 e8 3e 90 6c 21 3f 00 4b 00 3f aa 2b 4e 3e
       0.4535181 0.6305628 0.5011444 0.20133844
000110 24 5d 21 3f cd 8f c0 bf 40 65 80 3f 14 3d 22 3f
       0.63032746 -1.5043885 1.0030899 0.6337445
000120 98 35 4a 3f ec a8 9a bf ba 11 f4 3e e2 9f b9 bf
       0.7898803 -1.2082801 0.47669774 -1.4501917
000130 83 76 0e 3f ac 0e 1e 3f ab 55 31 3f af 79 ae bf
       0.55649585 0.6174114 0.69271344 -1.3630885
000140 07 0a 71 bf 9b 52 09 be 68 64 95 bf 17 bc 04 3f
       -0.94155926 -0.13410418 -1.1671267 0.518495
000150 b4 cd cb bf 9b 0b 4d 3f 0a 47 1a 3f 3a 7e 35 3f
       -1.5922151 0.80095834 0.60264647 0.7089573
000160 32 ac d2 bf 22 26 d8 bf 05 d2 5c 3f bd 6c 9a 3e
       -1.64588 -1.6886637 0.86257964 0.30161086
000170 dc 1e 51 3f d2 c1 2f 3f df 48 3f 3f 2f 47 08 3f
       0.8168771 0.6865512 0.7472057 0.5323362
000180 86 3f 1a 3f 33 f4 8d 3e 9a f7 04 3f c8 73 ff bc
       0.6025318 0.27725372 0.5194031 -0.031183138
000190 e1 f5 1c 3f a7 73 c6 bf 8a cc 4b bf 9a b9 a3 bb
       0.6131268 -1.5504044 -0.79608977 -0.0049964907
0001a0 aa 34 d3 bf 3f 4c 77 3e 79 b3 19 3f 55 e6 3b 3f
       -1.6500447 0.2415018 0.6003948 0.73398334
0001b0 45 72 26 3f 43 9d 16 bf 7b bd c2 bf 2c 12 2f 3f
       0.6501811 -0.5883371 -1.5214075 0.68387103
0001c0 ce 20 65 bf 84 5f 7e bf 37 dc c8 bf d5 d7 1e 3f
       -0.8950318 -0.99364495 -1.5692204 0.62048084
0001d0 dd 76 d2 bf d0 61 ba bf 8a 3a af 3e 72 16 a1 3e
       -1.6442524 -1.45611 0.3422435 0.31462437
0001e0 43 e5 36 3f d4 dc 09 3f 92 8c a6 3e 5c 35 34 3f
       0.71443576 0.5385258 0.32529122 0.7039392
0001f0 cc 7e bf 3e fb b2 2e 3f c0 08 9a bf 6b a4 c3 3e
       0.37401426 0.6824185 -1.203392 0.38211378

sequential.4.bias f4 [2]
000000 d0 55 6d 3e 86 65 78 3e
       0.23177266 0.24257478

sequential.0.weight f4 [64, 4]
000000 63 f4 cb be f2 46 02 3f 49 f0 b9 3e b9 9c a2 3e
       -0.3983489 0.50889504 0.36316136 0.31760195
000010 6e 30 5f 3e 04 34 e2 bd 90 51 b3 bf 20 a4 89 3d
       0.21795818 -0.110450774 -1.4009266 0.067207575
000020 e4 05 8e 3e d9 53 81 be 54 f6 a9 bc 92 2e 74 3d
       0.2773887 -0.25259283 -0.020747341 0.059614725
000030 98 9f 1d 3f 08 be e7 3e 79 51 f2 3f 37 fe f4 3e
       0.61571646 0.4526217 1.8931113 0.478502
000040 3d a3 9e 3d f5 b4 9f 3e 74 1f 05 3f ba 1b 12 be
       0.07745979 0.31192747 0.5200112 -0.1426839
000050 ab f0 c4 be 8c d9 17 bf 3a 3a d8 bf 96 fd 2d bf
       -0.38464865 -0.59316325 -1.6892769 -0.67965066
000060 fe a1 0a 3f 55 bb 8b 3e 60 40 da 3f 33 be a2 3e
       0.5415343 0.2729136 1.7050896 0.31785735
000070 f2 d8 0b 3f 28 df 9e be 30 3a 90 bf 68 be 41 bd
       0.5462791 -0.3102963 -1.1267757 -0.047300726
000080 78 ac e2 bb 01 95 09 3e 90 5c 82 3f 73 df f1 3e
       -0.0069175325 0.13435747 1.0184498 0.4724079
000090 7a 63 b2 be f3 8d 99 3e ef 15 01 c0 fb 15 73 be
       -0.3484152 0.2999111 -2.0169637 -0.23738854
0000a0 97 ec 96 be f6 ee 50 3e 4c b6 e4 3e 3c e9 31 be
       -0.2947738 0.20403656 0.4467033 -0.17374128
0000b0 17 3b 2d be da 53 76 be c8 3e 0d 3f c8 60 fe 3d
       -0.16917072 -0.24055424 0.5517392 0.12420803
0000c0 c2 41 d5 be ec c8 15 3f f0 25 3f 3d 09 ad 32 3e
       -0.41651732 0.5850971 0.04666704 0.1744882
0000d0 f7 3d 1a bf 79 58 f9 bc 42 4d 23 3f 2c e3 00 3d
       -0.602508 -0.030437695 0.6378976 0.031466648
0000e0 29 43 00 3b 67 49 9d 3d 3d 91 52 3f 51 4e 9b 3d
       0.001957128 0.07680016 0.82252866 0.07583297
0000f0 38 fd c9 bc be 71 b8 3c c3 ad c5 3e 5e 7b 48 be
       -0.024656877 0.022515174 0.38609132 -0.19578311
000100 00 49 1b bf 6f 10 0e bf ce 3b 80 bf 4a 8c fb be
       -0.60658264 -0.55493826 -1.0018251 -0.4913047
000110 1d c7 f2 3d 3a d3 ac bd df f7 9d 3f ea a2 eb 3c
       0.11854384 -0.08438726 1.2341269 0.028764207
000120 c9 74 c2 be 24 e4 0f 3e eb 07 89 bf 62 11 9f be
       -0.37979725 0.14051872 -1.0705541 -0.3106795
000130 19 fb 9b 3e c7 44 15 be dc 3c 7e bf 0e 43 df be
       0.3046501 -0.14577018 -0.99311614 -0.43605846
000140 57 f6 f0 3e 10 79 f2 3d 1d 39 19 bf fc df a1 bd
       0.47062942 0.11839497 -0.5985277 -0.0790405
000150 86 5d b8 bd 64 eb 7b 3e 3a 34 98 3f 6a 19 e7 3e
       -0.09002213 0.24601513 1.1890938 0.45136577
000160 41 08 ca be aa 8d 4d be aa bf d4 bf 28 c7 80 be
       -0.39459422 -0.20073572 -1.6620991 -0.25151944
000170 2b b8 e0 3e 3f 48 cc 3e 0a ad d5 3f 40 73 ed 3e
       0.4389051 0.3989887 1.6693432 0.4637699
000180 f2 1e 8a be fa 31 43 3e da 5e 1c c0 df 27 dd bd
       -0.26976734 0.19062033 -2.4432893 -0.107986204
000190 7d 9a 5d be ed ff c3 3d e3 51 34 3f 16 46 b0 3e
       -0.21640964 0.09570298 0.7043745 0.3442847
0001a0 e9 eb 06 3f ea 3c d0 3e 5d e3 f5 3f a0 6d 05 3f
       0.5270372 0.40671474 1.9210011 0.521204
0001b0 e9 41 f4 bc 7e 50 18 bf 97 e9 40 3e 2e 9c 9e 3e
       -0.029816585 -0.5949782 0.18839107 0.3097853
0001c0 82 a5 5c be 60 aa 4a bc db dc c2 bf 86 d7 55 be
       -0.21547511 -0.012369722 -1.522365 -0.20882997
0001d0 7c 05 b9 3e 8b 6c 9d be 65 23 cd bf aa ef 07 3e
       0.36136997 -0.30746874 -1.6026427 0.13275018
0001e0 6e 36 9b ba b9 cf fd 3e a2 3d 12 be 07 cc 96 be
       -0.0011841783 0.49572542 -0.14281324 -0.29452536
0001f0 60 ee 02 3e 0a 26 2a 3e 41 31 10 be fa bb 06 3e
       0.12786245 0.16616073 -0.14081289 0.13157645
000200 d0 7b 5e be 23 36 04 3d 93 c5 0c c0 be ae a4 be
       -0.21726918 0.03227819 -2.199559 -0.32164568
000210 9f 4a 3d be bb 39 d9 bd 5a ea 48 3c ba aa 8e 3e
       -0.18485497 -0.10606714 0.012262905 0.2786463
000220 60 ae 38 3f 24 e4 d5 3e 34 ed 0e 40 38 69 ef 3e
       0.72141075 0.4177562 2.2332277 0.46759963
000230 b7 b4 3a 3f b9 66 9d 3e ea 1e 4d 3f 25 6f 63 3d
       0.72932 0.30742434 0.80125296 0.055525918
000240 dc e3 49 3e 70 9e 09 3f af db be 3f 59 24 0a 3f
       0.19715828 0.5375738 1.4910792 0.5396171
000250 a8 cc 34 3f 14 60 d7 bd 4d 58 a7 3f 68 6b c4 3e
       0.7062478 -0.10516372 1.3073822 0.38363194
000260 21 d1 55 be db 9d df 3c cb ae c1 bf b7 78 70 be
       -0.20880558 0.027296951 -1.5131468 -0.23483549
000270 d0 6a c5 3e 64 37 4c bc cb 51 bb bf a8 9f 2b 3e
       0.38558054 -0.012464378 -1.4634336 0.16760123
000280 a1 9a 0e 3f ed ef d0 bc 09 44 d1 be 36 ef 86 bd
       0.55704695 -0.02550503 -0.4087222 -0.065885946
000290 68 bd 84 bf 1b 07 31 bd 48 f6 de 39 e7 ec d6 3c
       -1.0370302 -0.043219667 0.00042526633 0.02623601
0002a0 87 26 1a 3e fa 31 2d be d0 be f5 bf 71 fa fe be
       0.1505376 -0.16913596 -1.9198856 -0.49800447
0002b0 4d b6 23 3e 97 d4 4d be 4b 4a 35 bf 05 9e 6f be
       0.15987511 -0.20100628 -0.7081649 -0.23400123
0002c0 5a 61 5f bc 31 0a b1 3d f4 3e 03 3f b3 cf 44 3e
       -0.01363405 0.08644522 0.51267934 0.19219856
0002d0 f3 2c ff 3e a0 e2 31 3f 49 8b 9b 3e 3f b6 66 3e
       0.4983898 0.6948643 0.30379704 0.22530459
0002e0 63 e7 99 3e 3d 16 d7 3d 97 24 5f 3f 44 5a 21 3c
       0.30059347 0.105022885 0.87165207 0.009848181
0002f0 4b 47 f2 3e fa 94 93 3e a9 3c 33 40 bb f6 ef 3e
       0.47320017 0.28824598 2.8005774 0.46867928
000300 f1 99 58 3e b5 a8 cc 3e 16 88 07 40 c2 d5 17 3f
       0.21152474 0.39972463 2.117681 0.59310544
000310 a0 27 c6 3d 6c a4 85 be 29 d0 d6 bf 46 87 d1 be
       0.096755266 -0.26102006 -1.6782275 -0.40923518
000320 a3 18 29 be 0a 47 10 be c6 88 6f 3f 0c be 27 3e
       -0.16513304 -0.14089599 0.93568075 0.16381091
000330 e6 86 8a bf e8 8d 23 bf a7 1b fc bf 63 65 02 bf
       -1.0822418 -0.63888407 -1.9695939 -0.50935954
000340 52 47 01 be 67 52 39 3e 37 92 fb bf b9 7f 72 bd
       -0.12624863 0.1809784 -1.9653996 -0.059203837
000350 d4 38 8a bf f8 14 f9 be 72 e1 3f 3e 4f 83 af 3e
       -1.0798593 -0.4864881 0.18738344 0.34279868
000360 43 af 22 3f c5 4a 09 3f 46 25 de 3f 60 31 06 3f
       0.6354868 0.53629714 1.7355125 0.5241909
000370 47 97 9b 3e d8 e2 ed 3e fd 33 b1 3f e4 15 07 3f
       0.30388853 0.4646213 1.384399 0.5276778
000380 9b 47 f0 be 51 f1 4f be 19 66 c4 3f 4c e8 c3 bc
       -0.4692963 -0.20306899 1.5343658 -0.023914479
000390 be e1 3e be 1b 57 08 bf 06 c1 92 3f dc 2f b1 bd
       -0.18640801 -0.5325791 1.1465156 -0.086517066
0003a0 41 c0 ce 3d 0e db 0c bd 95 f3 7a 3f 91 53 81 3e
       0.10095263 -0.034388594 0.98027927 0.2525907
0003b0 f9 14 ef be 04 5b 49 3e fe be 62 3f 1b 0e 9b 3e
       -0.46695688 0.19663626 0.8857268 0.302842
0003c0 e4 3d 39 bd 8a 2a a4 3e 2d b0 67 3e e4 c3 2e be
       -0.04522504 0.32063705 0.226258 -0.17066914
0003d0 98 f1 2f 3f d8 ab 72 be 40 32 cb 3e 86 e9 78 3e
       0.6872802 -0.23698366 0.39686775 0.24307832
0003e0 5e 1b 00 3f 1f c0 85 3d 19 96 0d bf b4 61 eb 3d
       0.5004176 0.06530785 -0.55307156 0.11493245
0003f0 28 a5 be be e0 6d 57 3e ce 43 2d 3f bf 63 e9 3e
       -0.3723538 0.21038008 0.67681587 0.45583913

sequential.0.bias f4 [64]
000000 cf 06 40 3f 10 e0 16 3f 36 a7 22 bf 70 de bf be
       0.7501039 0.5893564 -0.63536394 -0.37474394
000010 85 00 2a 3f d8 23 fb be de 58 9a be 84 a3 e3 3e
       0.6640704 -0.49050784 -0.30145925 0.4446069
000020 16 d6 71 3f 78 dc 4c 3f 31 c2 64 3f 26 db 46 3f
       0.94467294 0.8002391 0.8935881 0.77678144
000030 68 1b 61 3f fc 3d 88 be d6 a9 05 3f fb 3d da 3e
       0.87932444 -0.2660979 0.52212274 0.42625412
000040 f4 65 b5 be cf 92 18 3f 7a 8f 5e 3f c6 b5 58 3f
       -0.35429347 0.5959901 0.8693768 0.84652364
000050 ed 53 e4 be cc eb 75 3f 53 39 55 3e a6 5f 33 3e
       -0.4459528 0.9606292 0.20822649 0.17516956
000060 fa 2a 53 3e 1b 7e 16 3f e3 5d 1b be 35 66 f0 be
       0.20621863 0.5878617 -0.15172534 -0.46952978
000070 49 48 c3 3e 12 34 69 3f 29 6a d0 3e 9f 8d 07 3f
       0.38141087 0.9109508 0.40705994 0.5295047
000080 18 e0 12 bf 28 f7 6c 3f 7e 2b d1 be fe 70 91 be
       -0.5737319 0.9256463 -0.40853494 -0.2840652
000090 76 f1 a3 3e 9a 94 26 bf dc 2b 15 3f 36 b6 c9 3e
       0.32020158 -0.650705 0.5827005 0.39396828
0000a0 b8 15 91 bd e9 65 7a be f3 4f a2 be e4 a9 0b 3f
       -0.07084221 -0.24452938 -0.3170162 0.5455611
0000b0 13 90 1c 3f 8c 3e ef be 65 5e 47 3f b9 5d 56 be
       0.6115734 -0.46727407 0.7787841 -0.2093419
0000c0 4c 7b ed be 33 c0 12 3f 96 da 22 3f cf 50 f5 3e
       -0.4638313 0.5732452 0.63614786 0.47913215
0000d0 98 a8 85 be 89 28 92 3e 4d ac b7 be 49 b5 be be
       -0.2610519 0.2854655 -0.35873643 -0.37247685
0000e0 9e 69 b3 be 69 cf 1d 3f bf ad 24 3f 5e d9 b0 be
       -0.35041517 0.6164461 0.64327615 -0.34540838
0000f0 64 94 67 3f 5b a4 45 bf 40 c6 92 3e e5 d5 66 3f
       0.904608 -0.7720391 0.28666878 0.9017013

sequential.2.weight f4 [64, 64]
000000 65 d3 71 3e b3 5e 45 3e e6 ee 18 bf 9f 3a 15 c0
       0.23615797 0.19274406 -0.5973953 -2.331703
000010 cb 98 b5 3e 99 95 94 bf 67 46 0a c0 19 c8 ea 3d
       0.35468134 -1.1608154 -2.160547 0.11463947
000020 fe 04 82 3e 7b 2e 79 3e a3 90 9a 3e ef b2 98 3e
       0.25394434 0.24334137 0.30188474 0.29824015
000030 05 57 79 3e f9 65 2f bf 37 bf 96 3e fe 57 67 3e
       0.24349602 -0.6851497 0.2944276 0.2259216
000040 e6 a4 6a be 0d 48 83 3e 94 35 89 3e 87 1f ad 3e
       -0.22914466 0.25640908 0.2679869 0.33813116
000050 e1 51 3a bf 18 22 50 3e 8a d5 30 bf 88 b9 66 be
       -0.7278119 0.20325506 -0.69075835 -0.22531712
000060 a8 37 b9 be 18 48 27 3e d0 10 73 bf 7e 5e 04 be
       -0.36175275 0.16336095 -0.9494753 -0.12926671
000070 1b 3d 82 3d 8b 11 b1 3e 8e ff f1 3d de 83 84 3e
       0.06359311 0.34583697 0.11816321 0.25881857
000080 40 f8 9b bf e9 4a c2 3e 7b c2 44 c0 2b 42 c1 be
       -1.2185135 0.37947777 -3.0743701 -0.37745795
000090 80 dc 84 bf 9c cb 0e bf 6c 3b d8 3e 11 d6 8f 3e
       -1.0379791 -0.55779433 0.42232835 0.28093007
0000a0 c0 fc 8f bd b1 f4 f4 be f9 10 a2 be 21 c3 d2 3e
       -0.0703063 -0.47842935 -0.31653574 0.41164497
0000b0 ec da ba 3e 91 b3 c2 be 2d 48 94 3e 91 94 a4 bf
       0.3649515 -0.38027623 0.28961316 -1.2857839
0000c0 d0 86 1e c0 20 f3 84 3e 4a 54 51 3e 91 dd 03 3e
       -2.4769783 0.2596674 0.2044231 0.1287749
0000d0 90 b7 2a be ae 99 87 be ed 5f b1 bf 01 40 fd bf
       -0.16671586 -0.26484436 -1.3857399 -1.9785157
0000e0 56 e2 46 bf 80 d9 fd 3d 37 4c 2e 3e 31 9a 9f bf
       -0.7768911 0.123950005 0.17021261 -1.246893
0000f0 1b 89 81 3e ae bc db be 05 d7 27 3e d1 69 7f 3e
       0.25299916 -0.4291739 0.16390617 0.2494271
000100 f8 d9 ed 3e e7 f9 44 3e 8c 29 b5 3e 99 a6 dd bf
       0.4645536 0.19235955 0.3538326 -1.7316467
000110 63 d1 c0 3e fd 83 86 bf ec ca bf bf 6d c7 88 3e
       0.3765975 -1.050903 -1.4983802 0.2671465
000120 fe f1 96 3e f2 33 9b 3e 09 7b aa 3e 0d 9f df 3e
       0.294815 0.3031307 0.33296993 0.43676034
000130 3a 85 42 3e 37 ce 1a bf 77 de 9d 3e f9 9b dd 3e
       0.18996134 -0.6047091 0.3083379 0.4328306
000140 f4 f4 fb be a8 93 ce 3e c2 b8 85 3e 18 bf 9c 3e
       -0.49210322 0.40347028 0.26117522 0.30614543
000150 9a 7e 9f be 41 42 8a 3e 24 f6 2d bf cd d9 15 be
       -0.31151277 0.27003673 -0.67953706 -0.14633866
000160 ed 8a f0 3d c3 1d ce 3e 8c ec 87 3d 53 c6 5a be
       0.11745248 0.4025708 0.066369146 -0.21364717
000170 51 92 5e 3e 6e de 89 3e e6 35 8b 3e 73 95 9e 3e
       0.21735503 0.26927513 0.2718956 0.30973396
000180 3f 81 9a bf 34 f5 db 3e a8 59 19 c0 49 36 71 3e
       -1.2070693 0.42960513 -2.3960972 0.23555864
000190 c4 76 31 bf 70 2a 24 be 4e ca c7 3e 6d 91 6b 3e
       -0.69321847 -0.16031814 0.39021534 0.23004694
0001a0 2f 56 ee 3e db ec 2f bf aa d5 d6 be a3 fe ac 3e
       0.46550128 -0.6872079 -0.41959888 0.33788022
0001b0 6f 40 e6 3e 39 58 10 be 0f 36 b1 3e 0b 6f 8d be
       0.44971034 -0.14096154 0.34611556 -0.27623782
0001c0 47 04 fc bf 18 30 e2 3d c7 17 91 3e 55 b7 e7 bd
       -1.9688805 0.110443294 0.28338453 -0.11314265
0001d0 aa 2f d7 3d 64 28 dd bd 20 d4 2e bf 5b 9b e9 bf
       0.10507138 -0.107987195 -0.6829243 -1.8250536
0001e0 d7 9c 81 bf c3 6c 7b 3d d4 d9 80 3e c5 46 93 bf
       -1.0125989 0.06138302 0.2516619 -1.1505972
0001f0 6c 74 a7 3e 9c a1 d9 bb 53 05 84 3e 60 ce a3 3e
       0.3270601 -0.00664158 0.25785312 0.3199339
000200 2b 03 96 3e f1 34 79 3e d2 6d 8b bc c7 59 f0 bf
       0.29299292 0.24336602 -0.01702014 -1.8777398
000210 c8 9d 4f 3c 33 41 97 bf c7 ec 09 c0 b0 23 5b 3e
       0.012671895 -1.1816772 -2.1550767 0.21400332
000220 fa c1 c7 3d d5 34 5c 3d 24 0b 52 3d 5d 48 d2 3d
       0.09753795 0.053761322 0.051280156 0.102677085
000230 2a b2 30 3e a9 12 00 bf 70 00 a3 3d 4b f9 a8 3d
       0.17255464 -0.50028473 0.07959068 0.08250674
000240 dc 2a 8a be a5 6d cf 3d 9c b4 ea 3c a2 46 68 3e
       -0.26985824 0.10128335 0.028650574 0.22683194
000250 4d ca 86 be ad 3b 3a 3e 70 b8 7c bf 5f ef 65 be
       -0.26326218 0.18186827 -0.9871893 -0.22454594
000260 51 72 9c be 6d e5 f9 3d 16 a0 c5 be 7b 61 08 bd
       -0.30555966 0.122019626 -0.38598698 -0.03329609
000270 d7 a0 e5 bd 70 29 18 3e 8d 25 8e 3d e4 6f 15 3e
       -0.112123184 0.14859557 0.06940756 0.14593464
000280 76 d1 99 bf d2 d2 13 3e 51 be 12 c0 38 ae 02 bf
       -1.2017047 0.1443589 -2.292866 -0.51047087
000290 60 9d 76 bf d3 3d 75 be b7 ac d2 3c 95 4e c5 3d
       -0.96333885 -0.23949365 0.025717122 0.09634129
0002a0 33 a9 28 3e 57 1e e6 be 64 ec 9a 3e d0 f2 33 3e
       0.16470794 -0.44945022 0.30258477 0.17573094
0002b0 72 5a 99 3d 19 1d 1f bd d6 ea 9a 3d 5e 78 43 bd
       0.07487954 -0.03884611 0.07564323 -0.047722213
0002c0 85 c3 be bf 67 a3 dd 3d 17 2c 48 3e da a3 55 3d
       -1.4903418 0.10822182 0.19548069 0.052158214
0002d0 4b f8 f2 bd 8c ae ec 3d 89 99 87 bf 28 de a6 bf
       -0.118637644 0.1155673 -1.059373 -1.3036547
0002e0 57 ee 08 bf da 83 aa 3e 34 48 43 3d 8e 18 b6 bf
       -0.5348868 0.3330372 0.04767628 -1.4226243
0002f0 4a ca 6c 3e 05 43 18 bd 6d 23 fe bc 45 f6 84 3e
       0.23124042 -0.03717329 -0.031022752 0.2596914
000300 71 78 15 3e 70 6e 90 3d 76 ba a4 3e 82 84 cb bf
       0.14596726 0.07052314 0.32173508 -1.5899813
000310 28 e9 83 3e ae 31 88 bf 2e 2d bf bf 6e 43 b3 3d
       0.25763822 -1.0640161 -1.4935663 0.087530956
000320 2b 79 a0 3e 99 29 8e 3e 23 7e 85 3e 53 27 92 3e
       0.31342444 0.27766111 0.26072797 0.28545627
000330 e8 b9 33 3e b6 c0 24 bf 40 35 90 3d cd 96 46 3e
       0.17551386 -0.64356554 0.07041407 0.19393463
000340 a3 a2 82 bd 7f 1c 6e 3e 7f 15 0e 3e 6e 3f a9 3e
       -0.06378677 0.23253058 0.13875388 0.33056206
000350 6d 90 8f be 13 f3 27 3e 8a 3e 09 bf 1d 26 15 3e
       -0.28039876 0.16401319 -0.5361105 0.1456532
000360 05 14 04 be ca 68 08 3e 2e f1 b9 be ed c2 66 bd
       -0.12898262 0.13321224 -0.36316818 -0.05633824
000370 15 6a 45 be b0 b4 73 3e 89 10 45 3e c0 54 5a 3e
       -0.19278748 0.23799396 0.19244589 0.21321392
000380 dd 2c 64 bf c8 90 49 3e 3a e2 0a c0 1e 2f f8 3d
       -0.89130956 0.19684136 -2.1700578 0.12118362
000390 20 2e 98 be c0 03 b6 be 02 bf 82 3e b8 9f ba 3d
       -0.2972269 -0.35549736 0.25536352 0.09112495
0003a0 28 35 19 3d c5 64 a7 be 3c 8c 85 bd 30 9d 4a 3e
       0.03740421 -0.3269407 -0.06520888 0.19786525
0003b0 91 e6 42 3e b7 c9 1d be 61 cd 9b 3e f4 4e 5e bf
       0.19033267 -0.1540898 0.3043013 -0.8683922
0003c0 ec b2 cd bf e4 d6 ad 3e 11 32 83 3e ce 89 80 3d
       -1.6070228 0.3395301 0.25624135 0.06276284
0003d0 e1 22 50 bc c0 c2 47 3e 91 98 4f bf a3 df ef bf
       -0.012703628 0.19507885 -0.8109217 -1.8740124
0003e0 29 94 75 bf 03 33 a4 bd 55 43 0a 3e 90 58 7d bf
       -0.959292 -0.08017542 0.13502248 -0.9896326
0003f0 3f 48 04 3e 4b aa 28 be 63 10 04 3e 01 61 8c 3e
       0.12918185 -0.16471212 0.12896876 0.27417758

sequential.2.bias f4 [64]
000000 aa 5e e7 3e d6 72 5b 3e 71 a9 9b 3d bd 02 a8 3e
       0.4518941 0.21430525 0.07600678 0.3281459
000010 06 99 56 3e 99 0d 9d bd d9 d1 c6 3d ec 74 a1 3e
       0.20956811 -0.07668609 0.09707994 0.31534517
000020 b9 41 1b 3e ac c2 da 3d 73 5e 98 3e 41 d0 b0 3d
       0.1516179 0.10681662 0.2975956 0.08633471
000030 75 c6 84 3e 66 5f a5 3e ab f4 35 3e 07 01 64 bd
       0.2593266 0.32299346 0.17769115 -0.055665042
000040 27 31 53 be fe 45 11 3e 15 86 05 be 45 90 d5 3e
       -0.20624219 0.14186856 -0.1303943 0.4171163
000050 cd dd 78 3c d8 ee ff 3e f3 cb 2e 3e 1d 97 23 3e
       0.0151896 0.4998691 0.17069988 0.15975614
000060 ad 04 13 3d e7 fa dd 3b 96 77 51 3e 65 0e 80 3e
       0.03589313 0.0067742947 0.20455775 0.25010982
000070 d6 94 6f 3e d1 b2 05 3f ee bb a6 3d 89 c9 ab 3e
       0.2339662 0.5222598 0.081413135 0.33552197
000080 16 cc df 3d d4 1f b6 3e b8 d7 c4 3e b3 a1 83 3d
       0.10927598 0.35571158 0.3844583 0.06427326
000090 92 2a fb 3d 72 68 eb 3c 7e 7f 35 be df cc 40 3e
       0.12263979 0.028736327 -0.17724416 0.18828152
0000a0 ee 62 8b 3d 7d 85 b4 be 9c 64 80 3e 4f 3d 86 3d
       0.06805979 -0.35258093 0.2507676 0.065546624
0000b0 53 42 1d 3e 78 21 7c 3e 44 62 18 3d 04 cc 46 3e
       0.15357332 0.24622142 0.03720309 0.19413763
0000c0 f7 a8 87 be 0e 73 2c be a0 87 87 bd c4 ad 5c 3e
       -0.26496097 -0.16840765 -0.06617665 0.21550661
0000d0 7c 34 fd bd 81 4b cc bc 72 ac 43 be 7a 70 80 3e
       -0.12363526 -0.024938347 -0.19108751 0.25085813
0000e0 66 63 bd 3e 47 f8 d3 3d c8 46 9f 3e 53 89 32 3e
       0.36989897 0.103500895 0.3110869 0.17435198
0000f0 61 3c b3 3c ee ea 3c 3d 5a 22 7a be df 3a be 3e
       0.021879377 0.046122484 -0.24427167 0.3715429

sequential.4.weight f4 [2, 64]
000000 4a f2 3d 3f f1 ad 1a 3f 0c 12 2e 3f 20 44 e3 3e
       0.7419783 0.60421664 0.6799629 0.44387913
000010 14 5b 16 3f c6 a7 e5 bf 17 40 db 3e 08 ad 0e 3f
       0.58732724 -1.7941825 0.42822334 0.55732775
000020 82 0c 59 3f c6 62 bf bf 15 9a 21 3f 14 aa c6 bf
       0.8478471 -1.4952018 0.63125736 -1.5520654
000030 cc 1c 2b 3f 00 67 34 3f 9e eb a6 3e 8e 3f a3 bf
       0.66840816 0.70469666 0.32601637 -1.275377
000040 d6 06 00 bf 84 72 1c c0 a8 a1 2e bf 5c ff 2f 3f
       -0.5001043 -2.4444895 -0.6821542 0.6874902
000050 6d 0a ed bf 1e b9 3a 3f e9 dd ab be 61 69 23 3f
       -1.8518807 0.72938716 -0.33567742 0.6383267
000060 c3 db ce bf 4c cb 8d bf fc 80 63 3f 7a b1 11 3f
       -1.6160816 -1.1077666 0.8886869 0.5691143
000070 21 a9 45 3f e8 fb 1f 3f c7 97 1b 3f 81 d4 12 3f
       0.77211195 0.62493753 0.6077847 0.57355505
000080 92 15 1e 3f e3 0e f8 3e d2 03 06 3f 2c 23 c7 3b
       0.61751664 0.48448858 0.5234958 0.006077191
000090 d3 3a 95 3e 78 ee d4 bf 86 91 87 bd ee 1a 8c bf
       0.29146442 -1.6635275 -0.06619553 -1.0945718
0000a0 cd f4 ed bf 8f 2f 7b bf 10 1b 13 3f 93 a9 28 3f
       -1.8590332 -0.98119444 0.5746317 0.6588375
0000b0 f0 ba d3 be ff b1 da 3e e2 51 ba bf 91 ae eb 3d
       -0.4135356 0.42713925 -1.4556239 0.11507905
0000c0 ea 9d 3b bf 0e f7 79 3f a1 00 df bf 3b d9 44 3f
       -0.7328783 0.976426 -1.7422067 0.7689397
0000d0 90 ea d4 bf 4b e2 02 c0 50 08 a7 3e 22 89 07 3f
       -1.6634083 -2.0450618 0.3262353 0.52943623
0000e0 e3 b5 3e 3f 49 f5 35 3f 62 c1 09 3f a2 5e bb 3e
       0.7449629 0.710774 0.53810704 0.36595637
0000f0 78 a6 10 bf 38 d1 cf be 3d 26 86 3d 4d 01 1b 3f
       -0.5650401 -0.4058931 0.06550262 0.6054886
000100 47 37 e8 3e 86 5f 21 3f be 24 00 3f 2c 09 4e 3e
       0.45354673 0.6303638 0.50056064 0.20120686
000110 26 2c 21 3f 8f 8f c0 bf d3 58 80 3f 22 33 22 3f
       0.6295799 -1.5043811 1.0027107 0.6335927
000120 50 fe 49 3f 4f a8 9a bf bb f9 f3 3e 31 9e b9 bf
       0.78903675 -1.2082614 0.47651467 -1.4501401
000130 11 69 0e 3f f1 04 1e 3f d7 42 31 3f 52 6b ad bf
       0.5562907 0.6172629 0.69242615 -1.3548377
000140 e0 09 71 bf c2 54 0c be 8a 68 95 bf 30 b7 04 3f
       -0.94155693 -0.13704208 -1.1672528 0.5184202
000150 98 ca cb bf 6e 03 4d 3f dc f0 19 3f bd 4b 35 3f
       -1.5921202 0.8008336 0.6013315 0.7081869
000160 0e ad d1 bf b3 26 d8 bf b4 ae 5c 3f c9 62 9a 3e
       -1.6380937 -1.688681 0.86204076 0.30153492
000170 ae 16 51 3f 71 bb 2f 3f 76 ff 3e 3f 21 3e 08 3f
       0.8167523 0.6864539 0.7460855 0.532198
000180 49 17 1a 3f 58 e6 8d 3e 4c ee 04 3f 53 75 ff bc
       0.6019178 0.277148 0.5192611 -0.031183874
000190 84 b4 1c 3f 64 73 c6 bf 7f ce 4b bf 5a 4e ac bb
       0.61212945 -1.5503964 -0.79611963 -0.0052583637
0001a0 d2 20 d2 bf 5c 4f 77 3e 7b a9 19 3f 84 ab 3b 3f
       -1.6416266 0.24151367 0.6002423 0.7330859
0001b0 75 12 26 3f a3 6e 16 bf 41 ba c2 bf 8c c6 2e 3f
       0.64871913 -0.5876257 -1.521309 0.6827171
0001c0 f5 22 65 bf e2 63 7e bf 17 cd c7 bf 77 a7 1e 3f
       -0.89506465 -0.9937116 -1.5609463 0.6197428
0001d0 7c 6a d1 bf 82 61 ba bf e7 3d af 3e 98 07 a1 3e
       -1.6360621 -1.4561007 0.34226915 0.31451106
0001e0 50 db 36 3f ec b0 09 3f c9 7d a6 3e a4 24 34 3f
       0.71428394 0.53785586 0.3251784 0.7036841
0001f0 c4 05 bf 3e 0c 61 2e 3f 00 de 99 bf 66 93 c3 3e
       0.37309086 0.6811683 -1.2020874 0.38198394

sequential.4.bias f4 [2]
000000 85 3d 6d 3e 96 6e 78 3e
       0.23167999 0.24260935

exp_avg f4 [64, 4]
000000 2e 29 4a 38 d9 42 87 37 70 ab e3 b6 c7 e0 f7 b7
       4.8198905e-05 1.6124382e-05 -6.785085e-06 -2.9549365e-05
000010 87 67 23 38 ee 04 8b 37 a9 fb 01 b7 fa 80 00 b8
       3.8958646e-05 1.6572387e-05 -7.747593e-06 -3.0637697e-05
000020 04 00 00 80 04 00 00 80 04 00 00 00 04 00 00 00
       -6e-45 -6e-45 6e-45 6e-45
000030 fa 38 18 38 6e 2a 99 b8 97 59 e2 37 b0 d5 3d 39
       3.6292688e-05 -7.303512e-05 2.6983018e-05 0.0001810405
000040 03 51 0b 38 54 b7 fb 36 01 e8 51 b6 e7 31 6b b7
       3.321563e-05 7.501725e-06 -3.127847e-06 -1.401871e-05
000050 04 00 00 00 04 00 00 80 04 00 00 80 04 00 00 80
       6e-45 -6e-45 -6e-45 -6e-45
000060 fb e2 11 38 ae ee 92 b8 06 c8 da 37 8d 92 36 39
       3.4782086e-05 -7.00628e-05 2.6080768e-05 0.00017411467
000070 02 6e 0c 38 dd bf 9b 37 b0 34 d2 b6 52 66 04 b8
       3.3481054e-05 1.8566783e-05 -6.2646213e-06 -3.1566546e-05
000080 5b 53 4b 38 f6 b4 84 37 d8 f5 c3 b6 f4 b9 e8 b7
       4.8476602e-05 1.5819893e-05 -5.840073e-06 -2.7743146e-05
000090 4d ad 02 38 e0 b9 8c 37 f8 74 56 b7 a4 c4 21 b8
       3.1155814e-05 1.6775855e-05 -1.2782628e-05 -3.8568527e-05
0000a0 53 89 49 38 c7 0e 8b 37 e6 6c f8 b6 18 4c 00 b8
       4.8050028e-05 1.6576972e-05 -7.4036534e-06 -3.0588446e-05
0000b0 cf 4d 4b 38 a5 e5 83 37 41 be e1 b6 20 b6 ef b7
       4.8471436e-05 1.5723353e-05 -6.727671e-06 -2.8575829e-05
0000c0 cb 6e 3e 38 ea 51 91 37 32 54 f6 b6 bf 1e 03 b8
       4.5402714e-05 1.7323491e-05 -7.341173e-06 -3.126147e-05
0000d0 e3 c3 d9 b6 a2 3c c3 b7 4c 06 4b 37 90 64 19 38
       -6.489908e-06 -2.3274046e-05 1.2101209e-05 3.65717e-05
0000e0 ac c1 56 38 05 3c 8a 37 61 9b b1 b6 2e e2 e5 b7
       5.1201947e-05 1.647883e-05 -5.2930995e-06 -2.740425e-05
0000f0 7c 19 3f 38 38 17 83 37 88 4e e9 b6 30 3a ee b7
       4.5561683e-05 1.5627229e-05 -6.9530834e-06 -2.8398907e-05
000100 50 fb d5 b5 2f d9 5b 35 53 15 0d b3 a8 16 b9 b5
       -1.5942878e-06 8.18999e-07 -3.2848515e-08 -1.3790168e-06
000110 5f 02 3f 38 3e 82 7d 37 4b c4 8d b6 5e 43 cb b7
       4.5540157e-05 1.51102995e-05 -4.224979e-06 -2.4230856e-05
000120 36 13 42 38 5c 10 ab 37 9d 38 53 b7 22 a0 32 b8
       4.6271096e-05 2.0392406e-05 -1.2589761e-05 -4.2587642e-05
000130 84 e7 63 38 22 95 a3 37 f0 dd 36 b7 9f a0 25 b8
       5.4336633e-05 1.950056e-05 -1.0899719e-05 -3.9488656e-05
000140 04 00 00 00 04 00 00 00 04 00 00 80 04 00 00 80
       6e-45 6e-45 -6e-45 -6e-45
000150 60 8b 45 38 0a 5e 7f 37 d2 08 ab b6 8c 61 da b7
       4.7098263e-05 1.522108e-05 -5.097224e-06 -2.6033049e-05
000160 3e a1 11 b9 e0 e3 91 b6 a9 09 cc b6 d2 9e 7d b7
       -0.00013888345 -4.347865e-06 -6.0807984e-06 -1.5116953e-05
000170 3a d2 dc b7 8f 52 3e b8 16 22 2f 37 ec 52 8c 38
       -2.6323938e-05 -4.537642e-05 1.0438749e-05 6.6911656e-05
000180 81 0a 78 b7 fb 19 ae 35 03 59 50 35 06 c0 9d 36
       -1.47843975e-05 1.2971572e-06 7.761557e-07 4.701319e-06
000190 31 cd 4d 38 6e 14 89 37 1a 2f d9 b6 99 41 f4 b7
       4.9066908e-05 1.6341186e-05 -6.4725873e-06 -2.9117613e-05
0001a0 9e 75 4a b7 44 fa 71 37 a4 87 48 37 a9 52 79 b6
       -1.2067523e-05 1.4422989e-05 1.195251e-05 -3.7152006e-06
0001b0 ad 0c ad 35 72 88 fb b5 72 57 3c b4 03 95 74 36
       1.2893194e-06 -1.8740668e-06 -1.7540677e-07 3.644557e-06
0001c0 df b1 10 37 43 f5 5c 37 8f bc 9f b6 ef 7a a5 b7
       8.624483e-06 1.3170126e-05 -4.7605204e-06 -1.9726778e-05
0001d0 cb 6c 42 38 ac 00 9a 37 d9 37 0b b7 fe e5 0e b8
       4.6354526e-05 1.8358543e-05 -8.298049e-06 -3.4069635e-05
0001e0 14 eb f7 37 56 fc 23 37 8f 57 02 b7 13 e6 a3 b7
       2.9554161e-05 9.774309e-06 -7.76899e-06 -1.953825e-05
0001f0 63 0d 55 38 69 70 84 37 63 f7 e9 b6 55 92 fc b7
       5.0795625e-05 1.5787971e-05 -6.9727407e-06 -3.0108882e-05
000200 04 00 00 00 04 00 00 00 04 00 00 80 04 00 00 80
       6e-45 6e-45 -6e-45 -6e-45
000210 f6 69 40 38 15 b7 74 37 14 d8 de b6 36 15 e6 b7
       4.587505e-05 1.458616e-05 -6.6412704e-06 -2.7428014e-05
000220 d6 49 4e 38 f2 08 cf b8 d9 60 17 38 52 b3 7f 39
       4.9182992e-05 -9.8721954e-05 3.6091402e-05 0.00024385497
000230 6c d1 49 35 31 55 e3 34 5f e2 71 b3 cc 6d 94 b5
       7.5183084e-07 4.234403e-07 -5.631807e-08 -1.1058814e-06
000240 15 2e 2b b9 dc f0 46 b8 a6 83 01 38 2a 64 f0 38
       -0.00016324998 -4.7431196e-05 3.0878604e-05 0.00011462749
000250 d0 c2 88 35 19 bb 1d b6 c2 8a a1 33 c1 55 87 36
       1.0189488e-06 -2.3503728e-06 7.5223866e-08 4.0332966e-06
000260 40 e5 69 38 0f bb ef 37 c7 8c 8b b7 fa 5f 70 b8
       5.5765035e-05 2.8578126e-05 -1.6635646e-05 -5.7309844e-05
000270 17 1e 0e 38 5c e4 b5 37 e1 0b 16 b7 ad 4c 23 b8
       3.388346e-05 2.168322e-05 -8.9434625e-06 -3.893364e-05
000280 e6 ea 70 37 81 3d 60 37 02 83 7e 35 d7 fd 91 b7
       1.4359806e-05 1.336576e-05 9.4813015e-07 -1.740355e-05
000290 06 1e 8f b8 53 0e 1b b7 ea 9b b8 37 2e 11 16 38
       -6.824364e-05 -9.242055e-06 2.2007112e-05 3.5778787e-05
0002a0 6a 23 81 b4 36 ae 32 35 67 75 b6 33 a8 ca 28 b4
       -2.405389e-07 6.656368e-07 8.496391e-08 -1.5719945e-07
0002b0 b3 3d 56 38 77 63 95 37 f7 11 12 b7 49 7e 0f b8
       5.1079038e-05 1.7808501e-05 -8.706461e-06 -3.421147e-05
0002c0 a4 91 42 38 96 06 86 37 ad 5c ba b6 7d bb e3 b7
       4.6388843e-05 1.5977112e-05 -5.554021e-06 -2.7147815e-05
0002d0 4e e9 21 35 40 53 ba b5 1c 95 c0 b4 31 05 d2 35
       6.0316677e-07 -1.3882309e-06 -3.5871278e-07 1.564773e-06
0002e0 3c 97 39 38 c8 ba 65 37 6c 3a 9c b6 fc c2 c5 b7
       4.4248285e-05 1.3692952e-05 -4.6559635e-06 -2.3575027e-05
0002f0 15 8d 93 b7 5f b0 1e 36 99 a2 70 37 f4 7b f9 36
       -1.7589462e-05 2.3646496e-06 1.43429725e-05 7.4352083e-06
000300 08 78 92 36 8f 38 30 b9 42 a3 30 38 c1 d3 9b 39
       4.3651125e-06 -0.00016805738 4.2113716e-05 0.00029721673
000310 20 7b 55 38 c4 8b ea 37 5b c6 93 b7 01 10 75 b8
       5.0897826e-05 2.7960057e-05 -1.7616132e-05 -5.8427457e-05
000320 c4 2e 51 38 7b 4d 8f 37 94 fb d3 b6 a8 3b f4 b7
       4.9873037e-05 1.7083008e-05 -6.3175776e-06 -2.9114846e-05
000330 d8 79 7e 37 51 02 79 37 6e 57 4b b7 d1 be 11 b8
       1.5167949e-05 1.4842096e-05 -1.2120099e-05 -3.4748406e-05
000340 90 66 5e b2 b8 03 3d b3 da b0 a3 31 6f 8f 81 32
       -1.2945421e-08 -4.4008374e-08 4.76403e-09 1.5082803e-08
000350 bf cb 3c b6 64 70 17 b6 2a 6a b2 b5 92 2e 8b 33
       -2.813278e-06 -2.2566173e-06 -1.3292931e-06 6.481163e-08
000360 01 7e 80 37 39 15 03 b8 3c bb 4e 37 95 0d a6 38
       1.5317464e-05 -3.12526e-05 1.2322151e-05 7.918027e-05
000370 3e c6 be 37 b3 20 8e b8 2a a0 28 36 d1 43 f3 38
       2.2742079e-05 -6.777178e-05 2.5127179e-06 0.00011599775
000380 24 05 df b7 59 a8 2b b8 ad 2b a5 37 38 58 78 38
       -2.6586065e-05 -4.0926363e-05 1.968987e-05 5.9209968e-05
000390 27 ef be 37 2d 06 f8 36 a0 f6 49 b6 30 ff 5e b7
       2.2761129e-05 7.391695e-06 -3.0094889e-06 -1.3291647e-05
0003a0 b1 df 19 38 f0 4e 4a 37 c9 24 6d b6 e6 9a a4 b7
       3.668637e-05 1.2058517e-05 -3.5337164e-06 -1.9622454e-05
0003b0 9e 93 f8 b7 3a 93 81 b8 ba 75 c0 37 8d a8 b8 38
       -2.9632643e-05 -6.1786224e-05 2.2943004e-05 8.805199e-05
0003c0 a8 4e 2e 38 bc ee 77 37 a8 40 d8 b6 05 7f e0 b7
       4.1558087e-05 1.4777932e-05 -6.4448286e-06 -2.6762029e-05
0003d0 04 00 00 00 04 00 00 80 04 00 00 80 04 00 00 00
       6e-45 -6e-45 -6e-45 6e-45
0003e0 b1 fe cd 37 6a 1e 41 37 96 d1 bf b6 cf 39 bb b7
       2.4556504e-05 1.1510778e-05 -5.7166426e-06 -2.2319056e-05
0003f0 53 3f 53 38 a9 32 89 37 a8 2c e7 b6 77 b4 fb b7
       5.0365295e-05 1.6355263e-05 -6.889535e-06 -3.0005567e-05
