model.pth (torch_old, 23543 bytes, 18 tensors)

fc1.weight f4 [64, 4]
0	0xbe0ade2f	-0.13561319
1	0x3d85d583	0.06534865
2	0xbf28b0e6	-0.65894926
3	0xbe45e89b	-0.19327013
4	0xbf321b1f	-0.69572634
5	0xbccb3381	-0.024804832
6	0x3eabed18	0.33579326
7	0x3e33adf3	0.17546825
8	0xbe3aebc8	-0.18254006
9	0xbd3cf27f	-0.0461297
10	0xbe174082	-0.14770702
11	0x3f12ba7a	0.5731579
12	0xbe3bece2	-0.18352082
13	0x3db35ec2	0.08758308
14	0xbe6adf38	-0.22936714
15	0x3f05a980	0.5221176
16	0xbeba50be	-0.36389726
17	0x3efc74d5	0.49307886
18	0x3e52849b	0.20558397
19	0x3e37eba8	0.1796099
20	0xbe0f3b50	-0.1398747
21	0xbc19f846	-0.009397572
22	0xbfb008c1	-1.3752671
23	0xbd9a7ddf	-0.07543539
24	0x3e3bee53	0.18352632
25	0xbe1463b3	-0.14491157
26	0x3f4bf9b3	0.79677886
27	0xbd0205fa	-0.03174398
28	0x3ee39708	0.44451165
29	0xbeb380c1	-0.3505917
30	0xbea177e3	-0.3153678
31	0xbea8563a	-0.32878286
32	0xbe10f835	-0.14157183
33	0x3e44af25	0.19207437
34	0xbdc2e50c	-0.095163435
35	0xbefac679	-0.48979548
36	0x3e100fab	0.14068477
37	0x3e2057c6	0.15658483
38	0x3d8c5c00	0.06853485
39	0x3f1551aa	0.58327734
40	0x3e6547d3	0.2239068
41	0xbe90489a	-0.2818039
42	0xbf9eb9fb	-1.2400507
43	0xbf0cb022	-0.5495626
44	0x3ea7b475	0.32754865
45	0xbe0fb1a1	-0.14032604
46	0x3e8707aa	0.26373035
47	0xbf291242	-0.66043484
48	0x3b8ccd8b	0.0042969636
49	0xbd86ff81	-0.06591702
50	0x3f9c0b40	1.2190933
51	0x3b712dbe	0.0036800946
52	0xbe4ebae1	-0.20188476
53	0xbeb6182c	-0.35565317
54	0xbd134598	-0.03595504
55	0xbe160354	-0.14649707
56	0xbca23a52	-0.0198032
57	0xbe276cf7	-0.1635016
58	0x3f5fa1cd	0.87356263
59	0xbd59ba72	-0.053156324
60	0xbe4c28c1	-0.19937421
61	0xbdf72247	-0.12067085
62	0x3f74d552	0.95638
63	0x3e752e5c	0.23943466
64	0x3f12b5b3	0.573085
65	0xbe48d02c	-0.19610661
66	0xbca16c75	-0.019705037
67	0x3f11ea8d	0.5699852
68	0xbd67208f	-0.056427535
69	0x3d38633b	0.04501651
70	0x3f83e905	1.0305487
71	0x3ed7bc2c	0.4213575
72	0x3ed615e2	0.4181357
73	0xbe2c576d	-0.16830225
74	0xbf7d50d9	-0.9895149
75	0xbea4ee84	-0.32213223
76	0x3ea8a2d9	0.32936743
77	0xbe7fe591	-0.24989916
78	0xbe1d88e7	-0.15384255
79	0x3f3b9bce	0.73284614
80	0x3dc28bbc	0.094993085
81	0xbeecec05	-0.4627382
82	0xbf647ed0	-0.89256
83	0x3eb71604	0.35758984
84	0x3ecb39e4	0.39692605
85	0xbe90b567	-0.282634
86	0x3f41f313	0.75761527
87	0xbf00cf6c	-0.503165
88	0xbe8bf2eb	-0.2733377
89	0x3de51cd7	0.111871414
90	0x3f702cd3	0.93818396
91	0x3e140c9d	0.14457937
92	0xbe978e7c	-0.29600894
93	0x3dba20ff	0.09088325
94	0xbea6b265	-0.3255798
95	0x3f04636e	0.5171422
96	0x3e3c29c1	0.18375303
97	0x3bb8df8d	0.0056418837
98	0xbf3671fc	-0.71267676
99	0xbdc40f37	-0.095732145
100	0x3f14a33e	0.5806159
101	0xbdceb979	-0.1009397
102	0xbeb7a434	-0.35867465
103	0xbccf79fd	-0.025326723
104	0x3e94528f	0.28969237
105	0xbeb2169d	-0.34782878
106	0x3de0c2c1	0.10974646
107	0x3f051648	0.51987123
108	0x3e4159f7	0.18881975
109	0x3f18a50b	0.59626836
110	0xbe650206	-0.22364053
111	0xbddee8b1	-0.10884226
112	0xbdfafc81	-0.122551925
113	0x3e59dec2	0.21276382
114	0xbf39796f	-0.7245092
115	0x3dbe4663	0.09290769
116	0x3ed1d23a	0.40980703
117	0xbec0ae26	-0.37632865
118	0x3d51c5e8	0.05121413
119	0xbf2bd104	-0.6711581
120	0xbe884b25	-0.2661983
121	0x3de411e1	0.11136223
122	0x3e14bfc5	0.1452628
123	0x3f3094a7	0.68976825
124	0x3eeb74fb	0.45987687
125	0xbeb99c0a	-0.3625186
126	0x3e5c9ffe	0.21545407
127	0x3e958975	0.29206434
128	0x3eafeed6	0.34361905
129	0x3b55fb0f	0.0032650863
130	0x3f521e28	0.82077265
131	0xbee56359	-0.4480236
132	0x3d0ed3a6	0.034869812
133	0xbe4de78b	-0.20107858
134	0xbf5d7c81	-0.865181
135	0x3daf9969	0.085741825
136	0xbd129e8f	-0.035795745
137	0xbebf6974	-0.37385142
138	0xbf09d90d	-0.5384682
139	0xbee8ab5d	-0.4544324
140	0xbcba9cb6	-0.022779804
141	0xbe2b6179	-0.16736402
142	0xbec7b31f	-0.39003846
143	0xbec2e106	-0.38062304
144	0x3ea37eca	0.3193267
145	0xbea25863	-0.3170806
146	0x3e998e24	0.29991257
147	0xbebc23b1	-0.3674598
148	0x3cbaccaa	0.02280267
149	0x3b78f8a2	0.0037989994
150	0xbfad5995	-1.3542963
151	0xbd33f12f	-0.043931182
152	0xbdc6efc1	-0.09713698
153	0x3e6f4ba1	0.23368694
154	0x3f03421c	0.5127275
155	0x3e3a967a	0.18221465
156	0x3eb93d20	0.36179447
157	0xbe8897bc	-0.26678264
158	0xbe7511a7	-0.23932515
159	0x3f4e945e	0.8069514
160	0xbe1d62cb	-0.15369718
161	0x3eaa083c	0.33209407
162	0x3f141dc7	0.57857937
163	0x3edf699e	0.43635267
164	0x3ecc2db6	0.39878625
165	0xbdfc8667	-0.12330323
166	0x3f1eb6c2	0.61997616
167	0xbe2f5888	-0.17123616
168	0x3ee1a71a	0.440728
169	0xbf05d2b8	-0.52274656
170	0x3ebe2fc5	0.3714582
171	0xbe825e85	-0.25462738
172	0x3eaffb0b	0.34371218
173	0xbe00e721	-0.12588169
174	0x3f00dae9	0.5033403
175	0xbc840c72	-0.016119216
176	0xbe0301e8	-0.12793696
177	0x3e000131	0.12500454
178	0xbdcde307	-0.10053068
179	0x3f039907	0.51405376
180	0xbe92ec2d	-0.28695813
181	0x3d611a98	0.054957002
182	0x3f1514ed	0.58235055
183	0xbaa4afe3	-0.0012564625
184	0xbc7d9545	-0.015477483
185	0x3ea907ff	0.33013913
186	0xbbeadb8d	-0.007167286
187	0xbebafe33	-0.36522064
188	0xbe766790	-0.24062943
189	0x3e534061	0.20630027
190	0xbd926c65	-0.07149581
191	0x3f1c5b1b	0.61076516
192	0xbc14058d	-0.009034527
193	0xbe70e926	-0.23526439
194	0xbf774ea9	-0.966044
195	0xbe3aff83	-0.18261532
196	0xbe7b1eb8	-0.24523437
197	0x3f1be858	0.60901403
198	0x3e54c54e	0.20778391
199	0x3e8ccb0f	0.2749867
200	0x3eccaeb5	0.3997704
201	0xbe1e23f1	-0.15443398
202	0x3eeefd33	0.4667755
203	0x3ec88ca2	0.39169794
204	0xbe450e7a	-0.19243804
205	0xbf01ce25	-0.50705177
206	0x3e6363a8	0.22205985
207	0xbeb5b5e0	-0.35490322
208	0xbe478c10	-0.19487023
209	0xbeb2bf8a	-0.34911758
210	0x3d838552	0.06421913
211	0x3f211e2c	0.62936664
212	0xbef0e10a	-0.4704669
213	0x3d9e8b78	0.07741445
214	0xbeb6bf5a	-0.35692865
215	0xbe275b55	-0.16343434
216	0x3d7fb25f	0.062425967
217	0xbd8d1264	-0.06888273
218	0xbf588acf	-0.84586805
219	0xbf06d7b6	-0.526729
220	0xbd4c3c9f	-0.0498625
221	0xbc1cc40c	-0.009568226
222	0xbe67fbf8	-0.22654712
223	0x3f67479c	0.9034364
224	0x3e0ded79	0.1386012
225	0xbe188f63	-0.14898448
226	0x3d9c7689	0.07639796
227	0xbef60fa7	-0.48058817
228	0x3dedfac6	0.11620097
229	0xbd99ae99	-0.07504005
230	0x3f4d2b81	0.80144507
231	0xbe43f25a	-0.19135419
232	0xbec7864a	-0.38969642
233	0xbcc8e598	-0.024523541
234	0x3f2432d6	0.6414007
235	0x3e817f90	0.25292635
236	0x3e83967c	0.25700748
237	0xbe6b5fce	-0.22985765
238	0x3ef91289	0.48646954
239	0xbebae482	-0.36502463
240	0xbd88fff0	-0.06689441
241	0x3ed925e2	0.42411715
242	0xbeb2db94	-0.3493315
243	0xbf00b8d0	-0.50282
244	0x3e844ebc	0.2584132
245	0xbec12548	-0.37723756
246	0xbf448c05	-0.7677615
247	0xbde26982	-0.1105528
248	0xbe3c78f3	-0.18405513
249	0x3e1af7e5	0.15133627
250	0x3ec9b298	0.3939407
251	0xbe9f4f8a	-0.3111537
252	0x3eac8109	0.33692196
253	0x3e2f693e	0.1712999
254	0xbec99018	-0.39367747
255	0xbeebb0f4	-0.46033442

fc1.bias f4 [64]
0	0xbe050f7e	-0.12994191
1	0xbeaf1a8e	-0.34199947
2	0xbd093d62	-0.033505805
3	0x3ed72468	0.42019963
4	0xbeb3162d	-0.34977856
5	0xbe5765fa	-0.21034995
6	0x3e343716	0.17599139
7	0xbeb57fd9	-0.35449103
8	0xbe86b851	-0.26312497
9	0xbeefebae	-0.46859497
10	0x3eca6d03	0.39536294
11	0xbe25ce7b	-0.16192047
12	0x3d813091	0.063080914
13	0xbd56fb19	-0.05248556
14	0x3eb6dc06	0.3571474
15	0x3ea2442f	0.31692645
16	0xbe68b893	-0.2272666
17	0x3e8e5709	0.27800778
18	0xbec59548	-0.38590455
19	0xbe4e214b	-0.20129888
20	0x3ee15af0	0.44014692
21	0xbe9e9d94	-0.30979598
22	0xbdc196ad	-0.09452567
23	0xbea61176	-0.32435197
24	0xbec77fc4	-0.38964665
25	0x3d2c64c4	0.042088285
26	0xbebc3283	-0.36757287
27	0x3eddfed3	0.43358478
28	0x3e839628	0.25700498
29	0x3d9f1a0f	0.07768642
30	0xbdd258af	-0.10270821
31	0xbd76817c	-0.06018208
32	0xbea99410	-0.33120775
33	0x3f0b0908	0.54310656
34	0xbec66294	-0.38747084
35	0xbe937515	-0.28800264
36	0xbf255509	-0.6458288
37	0x3ef42a3f	0.4768848
38	0xbe61a140	-0.22034168
39	0x3e908963	0.28229818
40	0xbe9d5c59	-0.30734518
41	0x3e8c8936	0.27448434
42	0x3e96be02	0.2944184
43	0x3ea12967	0.314769
44	0xbe5921fb	-0.21204369
45	0x3e24963a	0.16072932
46	0x3dd52817	0.10408037
47	0x3d882880	0.0664835
48	0x3c22d95d	0.009939519
49	0x3ea1634d	0.31521073
50	0xbda4dc82	-0.08049871
51	0xbe442098	-0.19153059
52	0x3f0bbf7f	0.54589075
53	0x3eaf9964	0.34296715
54	0xbd381b4d	-0.04494791
55	0xbe54ae08	-0.20769513
56	0x3ef1b8b0	0.47211218
57	0x3f039253	0.5139515
58	0x3e90edd0	0.28306437
59	0xbf13fac9	-0.5780454
60	0xbef03f1d	-0.46923152
61	0x3e3e34fe	0.18574902
62	0xbed6dca5	-0.41965213
63	0xbe4b4224	-0.1984945

bn1.weight f4 [64]
0	0x3f20a4a5	0.6275123
1	0x3e1da43b	0.1539468
2	0x3e645049	0.22296251
3	0x3f0fe504	0.56208825
4	0x3f117993	0.5682613
5	0x3ef48f36	0.4776551
6	0x3f2b618b	0.66945714
7	0x3f12edc7	0.5739407
8	0x3ec40941	0.3828831
9	0x3e1c7544	0.15279108
10	0x3f224a61	0.63394743
11	0x3f32d4f5	0.69856197
12	0x3f1dda65	0.6166137
13	0x3e95debc	0.29271495
14	0x3e825f9a	0.25463563
15	0x3ea91f67	0.3303177
16	0x3f81a371	1.0128003
17	0x3ed2b752	0.41155487
18	0x3f60fb9a	0.87883914
19	0x3a2cb799	0.00065886375
20	0x3da4f138	0.08053821
21	0x3f205e48	0.6264386
22	0x3f7380e1	0.9511853
23	0x3f09794c	0.5370071
24	0x3f0f6bd6	0.5602392
25	0x3ebcec91	0.36899236
26	0x3e54612c	0.20740193
27	0x3f22c091	0.63575083
28	0x3e6469b1	0.22305943
29	0x3ea18498	0.31546474
30	0x3edbf313	0.42958888
31	0x3ed9a6b8	0.4251001
32	0x3f0fa2ee	0.56107986
33	0x3eb2d694	0.34929335
34	0x3f1e3f0d	0.6181496
35	0x3efa031f	0.48830506
36	0x3eca7f10	0.39550066
37	0x3f023190	0.50856876
38	0x3f2ae231	0.6675139
39	0xba6f885b	-0.0009137445
40	0x3ea9736e	0.33095878
41	0x3f34d2eb	0.70634335
42	0x3ea1dd81	0.31614307
43	0x3f3edb3d	0.7455328
44	0x3ed21ce5	0.4103767
45	0x3e88c2d8	0.26711154
46	0x3eeec828	0.46637082
47	0x3f3b198d	0.7308586
48	0x3f2b9748	0.6702771
49	0x3f01689c	0.50550246
50	0x3ea1186e	0.3146395
51	0x3f3129c3	0.6920435
52	0x3f2a7511	0.6658488
53	0x3b14882c	0.0022664173
54	0x3ea803d0	0.3281541
55	0x3eb4e2f3	0.353294
56	0x3ee37dc5	0.44431892
57	0x3f0f3eb7	0.5595507
58	0x3e70982a	0.23495546
59	0x3ed1b903	0.40961465
60	0x3f112dff	0.5671081
61	0x3f35d3cf	0.7102632
62	0x3f34a3c4	0.70562387
63	0x3eb46e00	0.35240173

bn1.bias f4 [64]
0	0xbede561c	-0.4342507
1	0xbe7b49bf	-0.2453985
2	0xbe47a640	-0.19497013
3	0x3e137632	0.14400557
4	0x3c5e6611	0.013574139
5	0xbef70be5	-0.48251262
6	0xbe8d0d9a	-0.2754944
7	0x3dded848	0.10881096
8	0xbd961ef6	-0.07330124
9	0xbc70bde1	-0.014693708
10	0x3d00f0f9	0.03147981
11	0xbda793f3	-0.08182516
12	0xbf4cdc3c	-0.8002355
13	0xbd822b0b	-0.06355866
14	0xbe13c50e	-0.14430639
15	0x3d46827a	0.048464276
16	0xbe92c813	-0.2866827
17	0xbeb2b37c	-0.3490256
18	0xbede5dc1	-0.43430904
19	0x3dea3a83	0.114369415
20	0xbcb29cb6	-0.021803241
21	0x3eca7707	0.39543936
22	0xbe4afed3	-0.1982377
23	0xbc968130	-0.018372148
24	0x3e2f524a	0.17121235
25	0x3c8867b0	0.016651005
26	0xbda9d95b	-0.082934104
27	0xbe15286c	-0.14566201
28	0xbd0c593f	-0.0342648
29	0xbdf07c15	-0.11742417
30	0xbe69f02a	-0.22845522
31	0x3e1723a4	0.1475969
32	0xbeab2439	-0.33426073
33	0xbe68f5aa	-0.22749963
34	0xbddd0e18	-0.10793704
35	0xbe7fc4a9	-0.24977364
36	0xbeb28e9e	-0.34874433
37	0xbed3c6e5	-0.41362682
38	0x3c27395f	0.010206549
39	0x3dd3d0d4	0.10342565
40	0xbd2935fe	-0.041311257
41	0xbef5be89	-0.4799693
42	0xbdc5aefb	-0.096525155
43	0x3e7de5fd	0.24794765
44	0xbecb498a	-0.39704543
45	0xbeadf55e	-0.33976263
46	0x3e113a63	0.14182429
47	0x3eb7c892	0.3589521
48	0x3d0e3041	0.034713987
49	0xbdb092ab	-0.08621725
50	0xbed1fa11	-0.41011098
51	0x3de06b23	0.10957935
52	0xbe4164df	-0.18886136
53	0xbc4d775a	-0.012540663
54	0xbe9259ea	-0.28584224
55	0xbda42f75	-0.08016864
56	0xbe534b5b	-0.20634215
57	0xbe2c508c	-0.16827601
58	0x3cb41e0f	0.02198699
59	0xbc1208a8	-0.008913197
60	0xbe22754a	-0.15865055
61	0xbec1a39a	-0.3782013
62	0xbed98609	-0.42485073
63	0x3db1fb3f	0.086904995

bn1.running_mean f4 [64]
0	0xbe023886	-0.12716874
1	0xbeb97ece	-0.36229557
2	0xbd6f3576	-0.058400594
3	0x3ed54fb8	0.41662383
4	0xbe8def3a	-0.27721578
5	0xbe6cff37	-0.23144232
6	0x3e2aef07	0.16692744
7	0xbeccfdf4	-0.400375
8	0xbe67d19b	-0.22638552
9	0xbee605a3	-0.44926175
10	0x3eb29ad0	0.34883738
11	0xbe24d948	-0.16098511
12	0x3d8ab9a0	0.067736864
13	0xbdea0514	-0.1142675
14	0x3eaebb3f	0.34127232
15	0x3e9948d8	0.29938388
16	0xbe839a92	-0.25703865
17	0x3e940f3c	0.28917873
18	0xbed206e2	-0.41020876
19	0xbe806811	-0.25079396
20	0x3eb1d671	0.34733918
21	0xbea80b7e	-0.32821268
22	0xbd9604f2	-0.07325162
23	0xbea923c2	-0.33035094
24	0xbec8b150	-0.3919778
25	0x3d109347	0.035296705
26	0xbedab98c	-0.42719686
27	0x3f097f45	0.5370982
28	0x3e8eae27	0.27867243
29	0x3d1d41f0	0.03839296
30	0xbdd07a21	-0.10179544
31	0xbde53562	-0.111918226
32	0xbe9b55dc	-0.30338943
33	0x3efeeeec	0.49791658
34	0xbee5bb4a	-0.44869453
35	0xbea0e553	-0.3142496
36	0xbf2e1037	-0.6799349
37	0x3eec8811	0.4619756
38	0xbe38b9aa	-0.18039575
39	0x3e69bc92	0.2282584
40	0xbe8376c9	-0.25676563
41	0x3e8c79e4	0.27436745
42	0x3e694b5c	0.22782654
43	0x3e9e3aa1	0.30904105
44	0xbe526ab5	-0.20548518
45	0x3e2e6cd3	0.170337
46	0x3e29a234	0.16565782
47	0x3da89542	0.08231594
48	0xbd1cbd27	-0.038266327
49	0x3ed0f99d	0.4081544
50	0xbdc971dd	-0.09836171
51	0xbe8acb2c	-0.27108133
52	0x3ef16c8c	0.47153127
53	0x3eaf992b	0.34296545
54	0xbd60f153	-0.054917645
55	0xbe6c0f28	-0.23052657
56	0x3eeb934f	0.46010825
57	0x3f048d5f	0.51778215
58	0x3e8b9f95	0.2727019
59	0xbf18f1b2	-0.597438
60	0xbeca2eee	-0.3948893
61	0x3df83cbc	0.12120959
62	0xbec6c75c	-0.38823974
63	0xbe219eef	-0.15783285

bn1.running_var f4 [64]
0	0x3cadd81c	0.021221213
1	0x3eee7320	0.46572208
2	0x3db2fb62	0.08739354
3	0x3cec825c	0.028870754
4	0x3d84ef90	0.064910054
5	0x3d94504a	0.072418764
6	0x3c32c780	0.010911822
7	0x3cb77ca6	0.022398304
8	0x3d41bab2	0.047297187
9	0x3df184a4	0.11792877
10	0x3d8c5808	0.06852728
11	0x3d81f136	0.063448355
12	0x3bf9f130	0.0076276287
13	0x3eab14a4	0.33414185
14	0x3c9b4443	0.018953448
15	0x3d9b5f34	0.07586518
16	0x3e45a4c5	0.19301136
17	0x3cebcef0	0.028785199
18	0x3d3c9ace	0.04604607
19	0x3dccdad7	0.10002678
20	0x3e9238ac	0.28558862
21	0x3d033d61	0.032040957
22	0x3c987a1c	0.018612914
23	0x3d826254	0.06366411
24	0x3cb2c5c9	0.021822827
25	0x3e4a7ace	0.19773409
26	0x3da7b8dd	0.08189557
27	0x3f2bdfbd	0.6713827
28	0x3bc11f34	0.0058936123
29	0x3cddae04	0.027060516
30	0x3d543ca4	0.051815644
31	0x3d766b75	0.060161073
32	0x3e32386e	0.17404339
33	0x3d98e673	0.0746583
34	0x3e727a2b	0.23679416
35	0x3d7f2526	0.062291287
36	0x3c1cca7e	0.009569762
37	0x3c82facf	0.015988735
38	0x3d3a7ec8	0.045531064
39	0x3df60035	0.12011758
40	0x3da1f164	0.0790737
41	0x3dc308de	0.09523176
42	0x3d161e9b	0.03665028
43	0x3d7dec66	0.061993025
44	0x3c882b66	0.016622256
45	0x3d181bb3	0.03713579
46	0x3e1c3a08	0.15256512
47	0x3cb70560	0.02234143
48	0x3df8e89f	0.12153744
49	0x3e596a4b	0.21231954
50	0x3dd485eb	0.10377105
51	0x3f012063	0.50440043
52	0x3ec1ffcc	0.3789047
53	0x3e31ca88	0.17362416
54	0x3d0f8f28	0.035048634
55	0x3da83021	0.08212305
56	0x3c63a9c9	0.01389546
57	0x3c3bebda	0.011469806
58	0x3e0c96fa	0.13729468
59	0x3c00dc7d	0.0078650685
60	0x3e4e907a	0.20172301
61	0x3d8f24ab	0.06989416
62	0x3cc5adab	0.024130663
63	0x3e848101	0.25879672

fc2.weight f4 [64, 64]
0	0xbd60ae21	-0.054853562
1	0xbe1e48ee	-0.15457508
2	0xbe2bdb25	-0.16782816
3	0xbde28cbd	-0.11062
4	0x3e223be9	0.15843166
5	0xbc8cd192	-0.017189775
6	0xbdbd820d	-0.09253321
7	0xbdfce717	-0.123487644
8	0x3d2aa840	0.041664362
9	0xbd4978b3	-0.049187373
10	0xbe8004d6	-0.2500369
11	0xbea9b9af	-0.33149478
12	0xbe11243a	-0.14173976
13	0xbe36fc8d	-0.17869778
14	0xbedebb10	-0.43502092
15	0xbe543289	-0.20722403
16	0xbb975912	-0.0046187723
17	0x3dd0e45d	0.10199807
18	0x3ddb0fc5	0.10696367
19	0xbda198b1	-0.07890452
20	0x3b495c7c	0.003072529
21	0xb983bcc7	-0.00025126917
22	0xbd9bca1a	-0.07606907
23	0xbeb86095	-0.36011186
24	0xbe9f2e2e	-0.3108992
25	0xbe6e08ff	-0.23245619
26	0x3c0b3ef6	0.008498898
27	0xbea74caf	-0.32675692
28	0xbdf3495f	-0.11879229
29	0xbe9697f6	-0.29412812
30	0xbebd83d2	-0.37014633
31	0x3d52341d	0.05131923
32	0xbeca23f0	-0.39480543
33	0xbe59c92d	-0.21268149
34	0xbea5bc61	-0.32370284
35	0xbe6e2d7d	-0.2325954
36	0xbb186a73	-0.0023256808
37	0x3d560ce4	0.052258387
38	0xbe567afe	-0.20945355
39	0xbe20487c	-0.1565265
40	0xbe3a5237	-0.18195425
41	0xbe8d616d	-0.27613392
42	0x3e5a3d9e	0.21312568
43	0xbdd9d0b5	-0.10635511
44	0xbd1f3b8b	-0.038875144
45	0xbf0e8461	-0.55670744
46	0xbd6e94b1	-0.058247272
47	0xbdbad709	-0.09123046
48	0xbe8921af	-0.2678351
49	0xbbbe2e1a	-0.0058038356
50	0x3dfcf21a	0.12350865
51	0xbd3b4187	-0.04571679
52	0xbe23ea42	-0.16007331
53	0xbd4ea280	-0.05044794
54	0x3eb27e6f	0.34862086
55	0xbe991f52	-0.29906708
56	0x3e7cd75f	0.24691533
57	0x3df293a8	0.118445694
58	0xbdde1f13	-0.10845771
59	0xbde37e16	-0.11108033
60	0xbd57e145	-0.05270507
61	0x3e71fa97	0.23630749
62	0x3c224b65	0.009905671
63	0xbe066019	-0.13122596
64	0xbe9aad5f	-0.30210397
65	0xbcfef8d4	-0.03112451
66	0x3d038952	0.03211338
67	0x3cce1951	0.025158556
68	0xbdc553d8	-0.096351326
69	0x3e122ab9	0.1427411
70	0xbc93fb94	-0.018064298
71	0xbda2b016	-0.07943742
72	0xbec6055b	-0.3867596
73	0xbdd9fd8b	-0.106440626
74	0x3ded0880	0.11573887
75	0xbe316bfd	-0.1732635
76	0xbd00159a	-0.0312706
77	0x3df8d60f	0.121502034
78	0x3e0e010f	0.13867591
79	0xbbca4352	-0.006172576
80	0xbd98b188	-0.074557364
81	0xbe3d86da	-0.18508473
82	0x3dd42436	0.10358469
83	0x3d909314	0.07059303
84	0x3e041b43	0.12901025
85	0xbf00e163	-0.5034391
86	0x3e1d14c8	0.15339959
87	0x3dc51fdd	0.09625218
88	0x3d825b1b	0.06365033
89	0xbe8d5592	-0.27604347
90	0x3e0bdb26	0.13657817
91	0xbda757bf	-0.08171033
92	0xbea7fedb	-0.32811627
93	0xbe8df4e3	-0.27725896
94	0x3db88f78	0.090117395
95	0xbdbe5de5	-0.09295253
96	0xbd879cdc	-0.066217154
97	0x3cefc5f4	0.029269196
98	0x3dc63fae	0.09680115
99	0xbcc4b1b5	-0.024010519
100	0xbe262de5	-0.16228445
101	0x3e2d6f50	0.16936994
102	0x3d1e1711	0.038596217
103	0xbd876d4a	-0.06612642
104	0xbeb8100c	-0.35949743
105	0xbe2e17de	-0.17001292
106	0x3d988ff4	0.07449332
107	0xbddfa02b	-0.109192215
108	0xbe549445	-0.20759685
109	0xbe32cfed	-0.1746213
110	0x3dc72f2f	0.097257964
111	0x3ca1c75a	0.019748379
112	0x3e2101cc	0.15723342
113	0x3d92c47f	0.07166385
114	0xbd7a4906	-0.061104797
115	0xbe0535fa	-0.13008872
116	0x3def20fa	0.11676212
117	0xbde526f0	-0.11189067
118	0xbd06f149	-0.03294495
119	0x3e2b420a	0.1672441
120	0xbed8a38d	-0.4231228
121	0x3e6f145b	0.23347609
122	0x3e0d1930	0.1377914
123	0xbf1a70be	-0.6032828
124	0xbe1de093	-0.154177
125	0x3ded8550	0.11597693
126	0x3e48db44	0.19614893
127	0x3c8695e2	0.016428892
128	0xbd0f93af	-0.03505295
129	0xbe8319bd	-0.25605574
130	0x3d5b7f77	0.053588357
131	0x3e938a87	0.28816625
132	0xbe4afa94	-0.1982215
133	0x3d8c6304	0.06854823
134	0x3b77e131	0.0037823434
135	0x3d7fff68	0.062499434
136	0xbe7f158f	-0.24910568
137	0x3d8e0c4e	0.06935941
138	0x3e89e90e	0.2693562
139	0xbdc7ef4d	-0.0976244
140	0x3e73fa3d	0.23825927
141	0x3d78d7eb	0.06075279
142	0xbe988aff	-0.29793546
143	0x3dc3c1eb	0.09558471
144	0x3e6abcac	0.22923535
145	0x3cef7b45	0.029233584
146	0x3d3e8150	0.04651004
147	0x3c31afb4	0.010845114
148	0x3e69eefb	0.2284507
149	0xbd4caf7e	-0.04997205
150	0xbd2eda6e	-0.04268878
151	0x3e15bf6f	0.14623807
152	0x3dcbce32	0.09951438
153	0xbcf94450	-0.030428082
154	0x3e590796	0.211943
155	0xbe11f980	-0.14255333
156	0xbea07613	-0.31340083
157	0x3e6f6d19	0.23381461
158	0x3dba99af	0.09111344
159	0xbce7ef02	-0.02831221
160	0xbdccb0b8	-0.09994644
161	0xbd1656c7	-0.03670385
162	0xbe02fcdf	-0.12791775
163	0x3cc1b708	0.023646846
164	0x3eba66c0	0.36406517
165	0x3e913f97	0.28368828
166	0xbd7f45d4	-0.062322453
167	0xbc510177	-0.012756697
168	0xbd103a2f	-0.03521174
169	0x3ee7791e	0.45209593
170	0x3e608e0d	0.21929188
171	0x3cc1ad73	0.023642277
172	0xbe16dd03	-0.14732747
173	0xbeb5c4a3	-0.35501584
174	0xbd1465f2	-0.036230035
175	0x3e33f94b	0.17575566
176	0x3e9139d5	0.28364435
177	0xbde153cb	-0.1100231
178	0xbcc65177	-0.024208767
179	0x3b9a3961	0.004706547
180	0x3d148b6a	0.036265768
181	0x3dad185d	0.084519126
182	0xbee1d834	-0.44110262
183	0x3cb0abe9	0.021566348
184	0x3ca9f898	0.020748422
185	0xbe9e728f	-0.30946776
186	0xbe1dfdfb	-0.15428917
187	0x3e0433ea	0.12910429
188	0xbed61917	-0.41816017
189	0x3e2997c5	0.16561802
190	0xbeb39ab0	-0.35078955
191	0xbe93d26d	-0.2887148
192	0xbdbdfa57	-0.09276264
193	0xbda3773c	-0.079817265
194	0xbe2b374e	-0.16720316
195	0x3b3842a2	0.0028115888
196	0x3d105992	0.03524167
197	0x3ca32422	0.01991469
198	0x3db39901	0.087694176
199	0x3d3333b4	0.04375048
200	0x3d9f70cb	0.077851854
201	0xbd918a27	-0.071064286
202	0x3dec43dc	0.11536381
203	0xbe256575	-0.16151984
204	0xbbe62445	-0.0070233666
205	0xbde49570	-0.111613154
206	0xbd4f297c	-0.050576672
207	0x3e3557e0	0.17709303
208	0x3dd79090	0.1052562
209	0xbde80288	-0.11328608
210	0x3e072122	0.13196233
211	0x3d7802d5	0.060549576
212	0x3e310266	0.17286071
213	0xbe4780ae	-0.19482681
214	0xbdba285f	-0.090897314
215	0xbc9d7fa1	-0.019225897
216	0x3b38dce9	0.0028207845
217	0x3e2eabb7	0.17057692
218	0x3e1326d4	0.1437028
219	0x3e82c0f7	0.25537845
220	0xbe3426b9	-0.17592897
221	0x3e2f09b5	0.17093547
222	0xbd2b390a	-0.041802444
223	0x3e25c958	0.16190088
224	0x3dd62c6d	0.10457692
225	0x3e0d506d	0.13800211
226	0xbd56c260	-0.052431464
227	0x3c4b2dd6	0.012401065
228	0x3e4bdd26	0.1990858
229	0x3ec5bf8a	0.38622695
230	0xbebf946c	-0.37417924
231	0xbc5f47aa	-0.013627926
232	0xbf1f3e67	-0.62204593
233	0xbeafac07	-0.34310934
234	0x3e7eaf8b	0.24871652
235	0xbb62d67a	-0.0034612701
236	0xbe9c1ace	-0.304892
237	0x3c130b25	0.008974825
238	0xbcfb94f0	-0.030710667
239	0xbdf5f675	-0.120098986
240	0x3ddcebce	0.10787164
241	0xbdd35785	-0.103194274
242	0x3e0d2df2	0.13787058
243	0x3e3eec7d	0.186449
244	0xbdf06fab	-0.11740049
245	0xbd9787de	-0.073989615
246	0xbd4ede45	-0.05050494
247	0x3da863da	0.0822217
248	0x3dbcd3c7	0.09220081
249	0x3e82b7f7	0.2553098
250	0x3d5ed4ad	0.054402042
251	0xbd876f83	-0.06613066
252	0x3d89792a	0.06712563
253	0x3e87fec3	0.26561555
254	0x3efcb0ef	0.4935374
255	0xbd91a587	-0.0711165

fc2.bias f4 [64]
0	0xbce0e006	-0.027450573
1	0xbdf47c9b	-0.11937829
2	0xbd3bd5a2	-0.045858033
3	0x3dba3a99	0.09093208
4	0x3da800b8	0.08203262
5	0x3dd88f2d	0.105741836
6	0xbd0dc13c	-0.03460811
7	0xbdba4fc3	-0.090972446
8	0xbd801c09	-0.06255347
9	0x3c009c8c	0.007849824
10	0x3e823658	0.25432086
11	0xbd81b855	-0.06333987
12	0xbddf4500	-0.109018326
13	0xbdd2cc0a	-0.102928236
14	0xbd7e461e	-0.062078588
15	0x3bbb16e2	0.005709515
16	0xbcb47fc5	-0.022033582
17	0x3cd48f24	0.025947161
18	0x3e00b15f	0.12567662
19	0xbda565e9	-0.080760784
20	0x3db82476	0.08991329
21	0xbd8ab8a0	-0.06773496
22	0xbd8ba5cb	-0.06818732
23	0x3c80d8a8	0.01572831
24	0x3de0838b	0.1096259
25	0xbd9c5ac5	-0.076345004
26	0xbd3d7311	-0.046252314
27	0xbdec93e4	-0.115516454
28	0xbcd192eb	-0.025582751
29	0xbd6023bb	-0.054721575
30	0x3e4b9b6b	0.19883506
31	0xbd4c9063	-0.049942385
32	0x3e1475b2	0.14498022
33	0xbce1f5e7	-0.027583076
34	0xbdd158f3	-0.10222044
35	0xbddffe38	-0.1093716
36	0xbd3e6d7c	-0.04649113
37	0xbb9a64ef	-0.0047117393
38	0x3e91cf47	0.28478453
39	0x3dacb4a3	0.08432891
40	0xbd0ba9c6	-0.034097455
41	0x3dedffef	0.11621081
42	0x3e0ae4ea	0.13563886
43	0xbd88c42b	-0.06678041
44	0xbcfdbb9d	-0.03097325
45	0xbcd9e54f	-0.0265986
46	0xbd5a3882	-0.053276546
47	0x3d52a1ee	0.05142396
48	0xbd99f762	-0.07517888
49	0x3da791cf	0.08182108
50	0xbdbfb388	-0.09360415
51	0x3c866dde	0.01640981
52	0xbd798697	-0.06091937
53	0xbdc73035	-0.09725992
54	0x3c39f832	0.011350678
55	0xbbcc0117	-0.006225716
56	0xbe0eee4e	-0.13958094
57	0x3c238dd5	0.009982546
58	0x3c3ff020	0.011714965
59	0x3d348657	0.04407343
60	0x3cccdf22	0.025008742
61	0xbc4bf3a1	-0.012448222
62	0xbd73cb63	-0.059520137
63	0x3d053309	0.032519374

bn2.weight f4 [64]
0	0x3f00130c	0.50029063
1	0x3edad6e7	0.42742082
2	0x3f145ecd	0.57957155
3	0x3e9cfdd9	0.3066242
4	0x3e31610e	0.1732218
5	0x3e44a262	0.19202569
6	0x3f0c01f5	0.54690486
7	0x3ec3f447	0.38272306
8	0x3e64832a	0.2231566
9	0x3f042a05	0.51626617
10	0x3e078c32	0.13237074
11	0x3e0b7598	0.13619077
12	0x3f1a2fac	0.6022899
13	0x3e15d08f	0.1463034
14	0x3ee5264f	0.4475579
15	0x3e882a1a	0.2659462
16	0x3ece3a27	0.40278742
17	0x3ea19704	0.31560528
18	0x3eedfdf3	0.4648281
19	0x3e378321	0.17921115
20	0x3eb75282	0.35805136
21	0x3e93cd1d	0.28867427
22	0x3efa1b12	0.48848778
23	0x3e967426	0.2938549
24	0x3e5e296d	0.2169549
25	0x3eebf4ad	0.4608511
26	0x3ed4351a	0.41446763
27	0x3e7077f6	0.23483261
28	0x3e551e46	0.2081233
29	0x3ebb065e	0.36528295
30	0x3f1dc751	0.6163226
31	0x3e7cb469	0.24678196
32	0x3ea00e3f	0.3126087
33	0x3e68aee5	0.22722967
34	0x3ed2132e	0.41030258
35	0x3e8874ba	0.26651555
36	0x3e6ff38a	0.23432747
37	0x3e79b4e5	0.24385412
38	0x3f9083a2	1.1290171
39	0x3dcfed86	0.10152726
40	0x3e1cd4bb	0.15315525
41	0x3f4db007	0.8034672
42	0x3e80cffc	0.2515868
43	0x3ef7ed60	0.4842329
44	0x3f2a5ec5	0.66550857
45	0x3eeb298f	0.45930144
46	0x3ebad733	0.3649231
47	0x3f2d9824	0.67810273
48	0x3ebaca5f	0.36482522
49	0x3e7d8c97	0.24760662
50	0x3ebc8f10	0.36827898
51	0x3f03aa7f	0.5143203
52	0x3e9a3fbf	0.3012676
53	0x3ea626bf	0.32451436
54	0x3eec9dc6	0.46214122
55	0x3eca566c	0.3951906
56	0x3e91dbee	0.28488106
57	0x3ecc79eb	0.39936766
58	0x3edeee6e	0.43541282
59	0x3ee5d47d	0.44888678
60	0x3e5bdf91	0.21472003
61	0x3f041003	0.5158693
62	0x3ea63fc6	0.3247053
63	0x3f156d7e	0.58370197

bn2.bias f4 [64]
0	0xbee9237a	-0.4553488
1	0x3d75cd95	0.06001051
2	0xbf056e56	-0.52121484
3	0xbee7131e	-0.45131773
4	0xbda5c734	-0.080946356
5	0xbd9e1a20	-0.07719827
6	0xbeb4c97b	-0.35309967
7	0xbdd8e56a	-0.10590632
8	0xbda0a489	-0.078438826
9	0xbe91b0da	-0.2845524
10	0xbee53b90	-0.44772005
11	0x3cce0644	0.025149472
12	0xbeeb5915	-0.45966402
13	0x3e418670	0.1889894
14	0xbe81206f	-0.25220057
15	0xbd06a934	-0.03287621
16	0xbe8c9efb	-0.27465042
17	0xbeb66048	-0.35620332
18	0xbef9ec7d	-0.4881324
19	0xbf2ae1ce	-0.667508
20	0xbd7b5f24	-0.06137003
21	0xbe85dbdc	-0.26144302
22	0x3ee19679	0.44060114
23	0xbd9ddce4	-0.07708147
24	0xbdc8728b	-0.09787472
25	0xbed8573f	-0.42254063
26	0xbec1a9ed	-0.37824956
27	0xbde3e4f8	-0.11127657
28	0xbdab4de1	-0.083644636
29	0xbdd5fb77	-0.10448354
30	0xbe6e2c78	-0.23259151
31	0xbe009281	-0.12555887
32	0xbdca576b	-0.09879955
33	0xbe5408dc	-0.20706505
34	0xbde8a3a8	-0.1135934
35	0xbc8dbf8a	-0.017303247
36	0xbe5c3558	-0.21504724
37	0xbe9cf3bb	-0.30654702
38	0xbf009fc1	-0.50243765
39	0xbd3f7b03	-0.046748172
40	0xbb9bbf05	-0.004752996
41	0xbea8eb59	-0.32992056
42	0xbe70ac70	-0.2350328
43	0xbeaafa90	-0.3339429
44	0xbe475709	-0.19466795
45	0xbcad34e3	-0.021143382
46	0xbeaf3562	-0.34220415
47	0xbe7fd13f	-0.24982165
48	0xbef38163	-0.47559652
49	0xbe3bc60f	-0.18337272
50	0xbd79d0c4	-0.06099011
51	0xbedb2750	-0.4280343
52	0xbed160e2	-0.40894228
53	0xbd82ad09	-0.0638066
54	0xbe9af4bc	-0.30264843
55	0xbee10e21	-0.43956092
56	0xbd81ed81	-0.063441284
57	0xbebd1e96	-0.36937398
58	0xbeaa1931	-0.33222345
59	0xbef8f41d	-0.48623744
60	0xbc2fbab7	-0.010725669
61	0xbe992320	-0.2990961
62	0xbed0134f	-0.4063973
63	0xbf010a6d	-0.50406533

bn2.running_mean f4 [64]
0	0xbf8ca0ff	-1.0986632
1	0xbf13d9df	-0.5775432
2	0x3e0c947c	0.13728517
3	0x3e14e9fc	0.14542383
4	0xbf22a8db	-0.63538903
5	0xbf643796	-0.8914732
6	0xbefd9d3c	-0.49534023
7	0xbfa55c35	-1.2918764
8	0x3e00d916	0.12582812
9	0xbf2c9c88	-0.6742635
10	0x3f1080c7	0.564465
11	0xbf902a7b	-1.1262964
12	0x3ebae81d	0.36505213
13	0xbf8faee4	-1.1225247
14	0x3f66e4d1	0.90192896
15	0xbf858fe5	-1.0434538
16	0xbe77f4d4	-0.24214488
17	0xbe7831cd	-0.24237747
18	0xbd3fbc1f	-0.046810266
19	0x3e16ca30	0.14725566
20	0xbf677cde	-0.9042491
21	0xbe9a4b32	-0.30135494
22	0xbedf4357	-0.43606064
23	0x3eea40ad	0.4575247
24	0xbe7517da	-0.2393488
25	0x3f1f2e9c	0.62180495
26	0xbf6f5ebc	-0.9350393
27	0xbf5acba9	-0.8546701
28	0xbf8661f9	-1.0498649
29	0xbf4e966e	-0.8069829
30	0xbeb36130	-0.35035086
31	0xbf19916d	-0.5998753
32	0xbea70365	-0.32619777
33	0xbf2cd6f9	-0.6751552
34	0xbf08126e	-0.5315312
35	0x3f16f14f	0.5896196
36	0xbe9d67c3	-0.30743226
37	0xbc2a97f7	-0.010412208
38	0x3e051bcf	0.1299889
39	0xbe9e9a2b	-0.30976996
40	0xbf1e65d6	-0.6187414
41	0x3df0ccf9	0.117578454
42	0xbe869f61	-0.2629347
43	0xbf766676	-0.96250093
44	0xbe948b9f	-0.29012772
45	0xbf47c501	-0.7803498
46	0xbf0c85ff	-0.5489196
47	0x3f8c6513	1.0968345
48	0x3f58ec80	0.8473587
49	0xbf381400	-0.7190552
50	0xbed1a4b9	-0.40945986
51	0x3ea2e61c	0.31816185
52	0xbed64d06	-0.4185564
53	0xbe121710	-0.1426661
54	0xbef234c1	-0.47305873
55	0xbf30cd27	-0.6906304
56	0xbf49f7f0	-0.7889395
57	0xbf0659d7	-0.52480835
58	0xbd6d1afe	-0.05788707
59	0xbf1778b1	-0.59168535
60	0xbf3d03c8	-0.73833895
61	0xbeccf69c	-0.40031898
62	0xbef290c1	-0.47376063
63	0xbe5d50c2	-0.21612838

bn2.running_var f4 [64]
0	0x3f024a98	0.5089507
1	0x3f36e239	0.7143894
2	0x3f0c4159	0.5478721
3	0x3e7436a1	0.23848964
4	0x3eb95064	0.36194146
5	0x3eff6e54	0.4988886
6	0x3f140a8f	0.5782861
7	0x3f07705c	0.5290582
8	0x3e127375	0.14301856
9	0x3f45ca3e	0.7726172
10	0x3dacd7a2	0.08439566
11	0x3f401de9	0.7504564
12	0x3f0573d5	0.5212987
13	0x3f4e64d9	0.8062263
14	0x3eced1f7	0.40394565
15	0x3f712fd2	0.94213593
16	0x3ee4d824	0.44696152
17	0x3de16b95	0.11006848
18	0x3d8a786b	0.06761249
19	0x3dca3e12	0.0987512
20	0x3f4fa745	0.8111461
21	0x3ed72fd8	0.4202869
22	0x3e7552f8	0.23957431
23	0x3ea60644	0.32426655
24	0x3e27325d	0.16327806
25	0x3eccba16	0.39985722
26	0x3f797658	0.97446203
27	0x3eb6d2c8	0.35707688
28	0x3f71fb4a	0.9452406
29	0x3f1e86cd	0.6192444
30	0x3ebe3036	0.37146157
31	0x3edf34c4	0.43594944
32	0x3f1c948a	0.6116415
33	0x3f8c7142	1.0972064
34	0x3eaa1c00	0.33224487
35	0x3e591f6e	0.21203396
36	0x3ef38be0	0.47567654
37	0x3e98a62c	0.2981428
38	0x3d5aacaa	0.05338732
39	0x3f1427d4	0.5787327
40	0x3e9bd34e	0.3043465
41	0x3d2541f2	0.040346093
42	0x3e778f7a	0.24175826
43	0x3f82b037	1.0210027
44	0x3f0cae1d	0.54953176
45	0x3f2b8db1	0.6701308
46	0x3e867642	0.262621
47	0x3eda7376	0.42666215
48	0x3e944eaf	0.2896628
49	0x3e997425	0.29971424
50	0x3ee7d81c	0.45282066
51	0x3f16d25e	0.58914745
52	0x3e2807eb	0.1640927
53	0x3e779b50	0.24180341
54	0x3e2b6c96	0.16740641
55	0x3e9b6fb7	0.3035867
56	0x3f123d8a	0.5712515
57	0x3ede7679	0.43449762
58	0x3d7814b4	0.06056662
59	0x3e6f96aa	0.23397318
60	0x3eaf319a	0.3421753
61	0x3f02f359	0.5115257
62	0x3f495aee	0.7865437
63	0x3d371849	0.044700895

fc3.weight f4 [2, 64]
0	0xbd048804	-0.032356277
1	0xbd051032	-0.03248615
2	0x3d521e71	0.051298562
3	0x3d553f0e	0.052062087
4	0x3dddd5e2	0.108318105
5	0x3b3fa01a	0.0029239715
6	0x3cfa2992	0.0305374
7	0x3da95e3c	0.08269927
8	0xbed712e3	-0.42006597
9	0x3da184d5	0.07886664
10	0x3f555b46	0.833424
11	0xbc67cbb7	-0.0141476905
12	0xbdfcba57	-0.12340229
13	0xbe4cb147	-0.19989501
14	0xbdcc7f0b	-0.09985169
15	0xbde7c920	-0.113176584
16	0xbcf03496	-0.02932195
17	0xbc880bc3	-0.01660717
18	0x3cdc2d00	0.026876926
19	0xbf644a55	-0.8917592
20	0x3e066561	0.1312461
21	0x3d257db1	0.04040307
22	0x3dc858ac	0.09782538
23	0xbd201fd4	-0.039092854
24	0xbe290a72	-0.16507891
25	0xbc67ca34	-0.01414733
26	0x3d940c25	0.07228879
27	0x3e6d651f	0.23183106
28	0xbd4245b9	-0.047429774
29	0xbcce70fd	-0.025200361
30	0xbdcde959	-0.10054273
31	0xbd4620ef	-0.04837125
32	0xbdb7c234	-0.08972588
33	0xbe7563fd	-0.23963924
34	0xbd05f768	-0.032706648
35	0xbd8e62c2	-0.0695243
36	0x3f10bfc6	0.56542623
37	0x3c175518	0.0092365965
38	0xbc63d372	-0.013905393
39	0x3cc9cf02	0.024634842
40	0x3d997e48	0.07494789
41	0xbf238cde	-0.6388682
42	0x3ba9b8c5	0.005179497
43	0x3d114afb	0.035471898
44	0xbd759bde	-0.0599631
45	0x3ce8b31e	0.028405722
46	0x3b746304	0.0037290463
47	0xbe051ecf	-0.13000034
48	0xbf0cbf1e	-0.5497912
49	0xbd1b26ee	-0.037878923
50	0x3d74f19b	0.059800725
51	0xbdb57991	-0.088610776
52	0xbef33026	-0.47497672
53	0x3e189224	0.14899498
54	0xbd4743d0	-0.048648655
55	0xbcaa7ead	-0.020812357
56	0x3d84459d	0.0645859
57	0x3d8bb1c9	0.06821019
58	0xbf135fda	-0.5756813
59	0xbb3c36f4	-0.0028719278
60	0x3e0b0ece	0.13579866
61	0x3dec67f7	0.11543267
62	0x3dc6038e	0.09668647
63	0xbe57f971	-0.21091248
64	0xbd288dc0	-0.04115081
65	0x3d10168c	0.035177752
66	0x3ca52032	0.020156953
67	0x3ded8d00	0.11599159
68	0xbc27edac	-0.0102495365
69	0x3d85b9f2	0.06529607
70	0x3d509538	0.050923556
71	0x3bc8ffbb	0.006134001
72	0x3c796a73	0.015223133
73	0xbb2186df	-0.002464704
74	0xbf5c5338	-0.8606448
75	0x3e2252de	0.15851924
76	0xbccc837b	-0.024965039
77	0x3e214c94	0.15751868
78	0xbcdbda47	-0.026837481
79	0xbd9f9f0e	-0.07794009
80	0xbdd47f5e	-0.10375856
81	0xbf12a79f	-0.5728702
82	0x3fab4b68	1.3382387
83	0xbecaa2dd	-0.3957738
84	0x3de673e9	0.11252577
85	0xbbf88f85	-0.0075854682
86	0xbc640eca	-0.013919542
87	0xbdc7b629	-0.09751541
88	0xbd4e35d2	-0.050344296
89	0xbd80bda8	-0.06286174
90	0xbb4ac6ef	-0.0030941328
91	0x3ce58c5e	0.028021034
92	0xbddb42e3	-0.10706117
93	0xbd9d2f49	-0.076750346
94	0xbdf8be47	-0.121456675
95	0x3d07efb5	0.033187587
96	0xbca4a349	-0.020097392
97	0xbdf60271	-0.120121844
98	0x3d1089e0	0.035287738
99	0x3b31fb3b	0.0027157802
100	0x3ab26d24	0.0013612849
101	0xbd83f096	-0.064423725
102	0xbf0806a2	-0.5313512
103	0xbcdab73d	-0.026698703
104	0xbc8fa44c	-0.017534398
105	0xbafedbfc	-0.0019444223
106	0xbdc3cc00	-0.09560394
107	0x3d236e9b	0.039900403
108	0xbd5ad5f7	-0.05342671
109	0x3d639bc7	0.055568483
110	0x3e42c5ec	0.19020814
111	0xbde0c279	-0.10974593
112	0xbeb1707a	-0.34656125
113	0x3e5b261c	0.21401256
114	0x3d9b9e67	0.07598572
115	0xbd912bf4	-0.070884615
116	0xbe8ebf9a	-0.27880555
117	0x3dc5cb10	0.09657872
118	0xbed2421d	-0.41066065
119	0x3ec68e50	0.3878045
120	0xbc5ce9a3	-0.013483438
121	0x3d138396	0.036014162
122	0x3af31e30	0.0018548425
123	0x3e73b2cd	0.23798676
124	0xbc6f0ab0	-0.01458995
125	0x3b566d64	0.003271901
126	0x3dc60c72	0.096703425
127	0xbaf4bbf6	-0.0018671739

fc3.bias f4 [2]
0	0x3d2dc8be	0.04242777
1	0xbdf75085	-0.12075905

bn3.weight f4 [2]
0	0x4175b527	15.356727
1	0x416f1993	14.943744

bn3.bias f4 [2]
0	0x41e68bde	28.818295
1	0x41e95aee	29.1694

bn3.running_mean f4 [2]
0	0xbe501588	-0.20320714
1	0xbe7e9b9a	-0.24864045

bn3.running_var f4 [2]
0	0x3e091336	0.13386235
1	0x3d5fe995	0.05466612
