model.pth (torch_old, 19524 bytes, 6 tensors)

fc1.weight f4 [64, 4]
00000000: e6fb 373e d0d7 35be b703 86bf c3a0 efbd
00000010: 4b19 1e3f 494a bdbe f489 9a3f 1fbc d03e
00000020: 1724 d73e c1dc 973c 08b1 5c3f 0fa2 cebe
00000030: 31c6 8ebe 7304 b63e 962f 30be 866c a23e
00000040: 175d 85bd 392b 853e 165c e53e 4980 05bf
00000050: 02a4 133d 4b9a ce3e 98cf 873c 034b d2bc
00000060: 76f4 403e dc04 713e 6f27 8fbf 98f6 783e
00000070: 93fd 24bf b3ea 733e 0b21 42bf 200f 663e
00000080: 6677 d0be 3962 1e3e 0562 ca3e 45d8 fb3e
00000090: 4762 4a3f a213 283e 1b5e 4dbf ba84 8fbc
000000a0: 288c 4b3d 6768 a53e c7b3 92bf c269 423d
000000b0: 2e6f d7be 9b17 1bbf c383 6d3f 5b7e 19be
000000c0: fbe7 1bbd dad3 1abf 8c8b 42bf 1cae 71be
000000d0: f4d2 44be 4315 e03d 2ddf 3fbf 0c44 7dbd
000000e0: b393 0f3e 22e0 1ebf fb3a 50bf 516a b53e
000000f0: cca0 65bf 36dd be3d 14f3 a43e ce43 603e
00000100: 832e 173e 4258 1bbf ef05 29bf 6eaf 103e
00000110: a4d7 8b3e 77e0 6b3e 7d8c ab3f cbcc d8bb
00000120: f1e4 533d d528 98be eeea 9dbf a64b 86be
00000130: e0fb 31bf 22e2 ccbd 2f76 66bf 344c 6fbd
00000140: 8d16 903e 54c3 523d f95a 61bf 4812 af3c
00000150: e38f da3e 4568 a2be f631 d73f 2c3b fc3b
00000160: 3d27 143e 18cc 4cbe 95ed 163e 1fbc 99be
00000170: d010 6fbe cb6f ef3d 5b86 1840 a045 d13e
00000180: d64e a13e 058b c9bd 5d6d afbd 91dd 1dbd
00000190: 900e 23be 164e a03d 5323 59bd e670 a4be
000001a0: 8b28 5bbf fd48 b8be fb81 99bf e2e1 67be
000001b0: cd4d 8cbf 45f1 50be 10ac a33e d816 9abd
000001c0: 8a45 66be 3186 fc3e 3b4a 173f 3a82 04ba
000001d0: 24d9 023c e4e1 29be a2c1 a63f 936b b63e
000001e0: e047 27bf 54e8 16be d994 60be 7d2f b73e
000001f0: 2755 8a3e 6ba5 92bd c35f 47bf ff22 c93e
00000200: 57fa 193e 58c7 19be 5375 b9bf e9fb 6a3e
00000210: 047d bebd 9bd5 bebc 5810 babf 92bd 01bf
00000220: a800 043d 327c 903e e493 a63f c88e cc3e
00000230: c5ee ddbe ee0e a13e 5c1e da3e 2822 98be
00000240: 8b78 41bf 6a66 d3be eccc 9b3f 3c92 b1be
00000250: 569b 14bf 9ed2 acbe 76ad a93f 237e 68bd
00000260: 26f5 c53e 5efb 973c 5dbf 52bf 69a7 b63e
00000270: 4fab 3abf 2b1e 40bb 797b bb3f 128f 643e
00000280: f723 383e fb19 83bd 9397 afbf dcf7 643e
00000290: b6be 353f 29a2 32be 66c0 97bf 010c 85be
000002a0: ff98 393e 3bf6 97be 1b8f cfbe ab6e 0f3e
000002b0: c5c3 af3e 5bc3 b83e 4995 8ebe cb77 cbbd
000002c0: da2a 05be 05d8 cf3d e70e 0440 bc73 833e
000002d0: a9a6 803e c6d0 ee3e dffe 013f b677 953e
000002e0: a988 06be 7fa1 fa3d 833b acbe 8ada 86be
000002f0: e912 a1be 799e f3be f41c 9dbf 667e c8be
00000300: f174 0d3f 23a7 0a3f 7328 ad3f bf66 1f3e
00000310: 9754 40bf cd03 47be cf89 573f a0e5 ec3e
00000320: c3be 993e abd5 a4be eaee 15bf 1d90 a23e
00000330: c9a4 3a3e 3ede 44bd a59f ebbf b91e 9dbe
00000340: 3104 fabd 3269 d03e b77c 5c3e 4f31 89be
00000350: e9a4 ddbd 0b49 d63e 80a4 7d3f 9230 6ebe
00000360: 7e09 4e3e 467c 883e 4267 e2be a045 133f
00000370: b4f8 80be e899 023f ad25 01bd 9165 99bd
00000380: 212d b53e cb90 c8be 077a d83e 2bc6 6ebe
00000390: 032c bd3d f74b 7ebe 280f 6bbf 4fd0 133f
000003a0: 1bb4 7cbd 283f 3dbe 648b bf3f ee18 063f
000003b0: 2806 4a3e 2a46 7c3e f7e0 10bf 1f04 12bf
000003c0: b200 66be ad00 bc3d be9b f73f c833 a53e
000003d0: 2e48 89bc f180 3a3d 467f a33f b638 953e
000003e0: 38f6 09bf 845a 76be 29d9 e7be cdee dfbd
000003f0: 61fa 503e 3b0c b13e 063e 9bbe a305 343e
0.17967185 -0.17758107 -1.0469884 -0.11700585 0.61757344 -0.36970738 1.207335 0.40768525
0.42019722 0.01853788 0.8620763 -0.40358016 -0.27885583 0.3555027 -0.17205653 0.31723422
-0.06511896 0.2600954 0.44796818 -0.5214887 0.036045082 0.4035209 0.01657848 -0.025670534
0.18843254 0.2353701 -1.1183909 0.24312818 -0.64449424 0.2382 -0.7583167 0.22466707
-0.40716094 0.15467156 0.39527908 0.49188438 0.7905621 0.1641374 -0.8022172 -0.017519344
0.04969421 0.32306215 -1.1461114 0.04746414 -0.4207701 -0.60582894 0.9277918 -0.14989607
-0.03806303 -0.6047951 -0.7599418 -0.23601574 -0.19221097 0.10941555 -0.74949914 -0.061832473
0.14021187 -0.6206075 -0.8134 0.35432675 -0.8969848 0.093195364 0.32216704 0.21900865
0.14763837 -0.60681546 -0.6602468 0.14129421 0.27312958 0.23034845 1.3402249 -0.00661621
0.051732007 -0.29718652 -1.233732 -0.2622959 -0.69524956 -0.10004069 -0.90024084 -0.058422282
0.28142205 0.05145581 -0.8802944 0.021371022 0.42687902 -0.31720176 1.6812122 0.0076974835
0.14468093 -0.1999973 0.14739068 -0.30026338 -0.23346257 0.11691245 2.3832004 0.40873432
0.3150546 -0.09840969 -0.08565781 -0.03854138 -0.15923524 0.07827394 -0.053012203 -0.32117385
-0.8560874 -0.35993186 -1.1992792 -0.22644761 -1.0961243 -0.20404537 0.3196721 -0.07523888
-0.22487465 0.4932113 0.5909764 -0.00050548057 0.007986341 -0.16590077 1.3027842 0.35628948
-0.6534405 -0.14737064 -0.21931781 0.35778418 0.2701809 -0.07160457 -0.77880496 0.39284512
0.15036903 -0.1501745 -1.448893 0.22947659 -0.093011886 -0.023295214 -1.4536238 -0.50679886
0.03222719 0.28219754 1.3013883 0.39952683 -0.4334623 0.31456703 0.42601287 -0.2971356
-0.7557456 -0.41289073 1.2171912 -0.3468188 -0.58049524 -0.33754438 1.3256061 -0.05676092
0.38663596 0.018552478 -0.8232325 0.356746 -0.72917646 -0.0029314857 1.4647056 0.22320202
0.1798247 -0.0640144 -1.3718132 0.22360176 0.70994127 -0.17444672 -1.185559 -0.2598572
0.1812477 -0.29680046 -0.40538868 0.1400706 0.34329048 0.36086544 -0.2784827 -0.09934958
-0.13004628 0.10148624 2.0634096 0.25674236 0.25127152 0.46643656 0.5077953 0.29192895
-0.13138069 0.12237834 -0.33639154 -0.26338607 -0.3145974 -0.47581843 -1.2274461 -0.39158934
0.55256563 0.5416128 1.3527969 0.15566538 -0.75129074 -0.19435044 0.84194654 0.4626894
0.30028352 -0.32194266 -0.5856768 0.31750575 0.18226923 -0.04806351 -1.8408095 -0.30687502
-0.12207831 0.40705258 0.2153195 -0.26795432 -0.1082247 0.41852602 0.9907913 -0.23260716
0.20120808 0.26657313 -0.44219404 0.57528114 -0.25189745 0.5101609 -0.03153007 -0.074900754
0.35385993 -0.39172968 0.422806 -0.23317783 0.0923691 -0.24833666 -0.9182 0.5773973
-0.0616952 -0.18481123 1.4964414 0.5238179 0.19728911 0.2463614 -0.5659327 -0.5703754
-0.22461203 0.091798164 1.9344404 0.32266068 -0.01675805 0.045533124 1.2773216 0.2914483
-0.53891325 -0.24057966 -0.45282868 -0.109342195 0.20408012 0.34579644 -0.30320758 0.17580275

fc1.bias f4 [64]
00000000: 9cba b83e 1187 0abe 75f3 303f c0d7 b63e
00000010: e025 0dbf 92e9 003f b649 b53e 07c0 273f
00000020: f1c2 313f 87c8 4cbe a534 44be c829 1b3f
00000030: 818f febe c38e b23e 9c5e 26be 1933 b83e
00000040: d0bf bebe 82f3 ba3e 5fe7 283f 85c1 a3be
00000050: e1a4 c6bd 9bba 483f 52cf 323f aff5 09bf
00000060: 1693 123f 5905 4f3f 5f33 0d3e 00d4 4f3d
00000070: 707a 303f ab7d 41bf 3ac6 e63e 036a 0b3f
00000080: 8620 613e d19b 06bf 0c74 f8be 3437 66bc
00000090: 2597 ec3e 52c1 213e bf9d 1c3f 627b 64be
000000a0: d478 c2bb 04f0 65be 4939 2a3f c899 e43e
000000b0: 6aed cbbe 94bd efbe 9a08 1f3f 011e d1be
000000c0: 31e9 aa3e 2328 70bf 5902 f43e 99cf 5dbe
000000d0: 51bb 5b3d c9e4 a53e 2e6f 393f 34cd 25bf
000000e0: 4957 8ebe e40a b9bd 67d8 41be 97fa 0cbe
000000f0: 4f6d d4be b76f acbe 1bbb edbe 0b87 0cbf
0.36079872 -0.13528086 0.69121486 0.3571148 -0.5513592 0.503564 0.354078 0.65527385
0.6943808 -0.1999837 -0.19160707 0.6061063 -0.4971886 0.34874544 -0.16247028 0.35976484
-0.37255716 0.36513907 0.65978044 -0.3198358 -0.09699417 0.7840974 0.69847596 -0.5389051
0.57255685 0.80867535 0.13789128 0.05073929 0.68936825 -0.7558238 0.4507311 0.54458636
0.21985063 -0.52581507 -0.48526037 -0.014051247 0.46209064 0.15796402 0.611782 -0.22312692
-0.005934814 -0.2245484 0.6649366 0.44648576 -0.3982957 -0.46824324 0.621225 -0.40843204
0.33381036 -0.93811244 0.4765804 -0.21661223 0.053645436 0.32401112 0.7243527 -0.6476624
-0.27800968 -0.0903528 -0.18930207 -0.13767467 -0.41489646 -0.33678982 -0.46431813 -0.5489356

fc2.weight f4 [64, 64]
00000000: 9bb7 2c3e fc14 213e 926f fc3d 107c a63e
00000010: e39e 373d f1fe aa3e 8d14 8d3d 80e7 803e
00000020: 153d 783e ab60 96be e7f0 7abe 14fd f53a
00000030: d7fb bfbe 0b18 11bc 086a 2b3c e42c 663e
00000040: b713 a8bd 3abc 403e 38e0 9b3d c41b 11be
00000050: e9de 10bf ec9d 803e 6dbf ef3d 907f 73bf
00000060: 4def 273e 8b83 c43e 59eb bcbc 7bd5 0dbc
00000070: f2a0 4a3e ef21 b1bd cd13 323e d9e2 f43d
00000080: 63c7 b13d 81ad 1abf 545d 54be ff22 233e
00000090: 889d fe3d 17a7 b03d dfe7 813e bb18 90bd
000000a0: 3ca8 08be 8a62 98bf c0bc 1a3e 1ba9 563d
000000b0: f7ab e5be e527 3ebe 40fc 3a3e 6b86 c3be
000000c0: 0b71 423d 3d01 263d 6dd2 933e c6e9 e1bf
000000d0: 73cb a93d 21e6 373e f896 a03e e0b6 513e
000000e0: 1496 f5bd 2faa bf3c 6d49 bbbc 9f42 48be
000000f0: b6f2 32be d369 d5bd ead6 3dbe cd3e 8dbe
00000100: a62c 83bd b02b 4c3d 661b a0bd e0de efbc
00000110: 8c5a 8ebd 8873 92bc 782a 8cbc 30fc 933d
00000120: 0063 63bc 84b3 b43d 5c97 9bbd a88b 3abd
00000130: 5ca1 7e3d c6d8 ffbd aaca a3bd 34d7 41bd
00000140: 8825 84bc 00ab 963d 0a1c febd 40a9 fdbb
00000150: 70a5 313c f65f dcbd 72b2 c4bd 9861 873c
00000160: 408b 74bb 005a 7b3b a088 36bd 5a1b ff3d
00000170: 0003 7abc 44bb 7fbd 6824 9bbd 14d7 8abd
00000180: ac5d 31bd e87d a3bd e8f1 a03c c0f9 74bc
00000190: 00b0 49b9 805f f6ba f2b3 b0bd 06c5 cc3d
000001a0: 2804 85bd cce8 a23d 2c7c 68bd 2089 f2bc
000001b0: e623 b0bd 983f 753d 98ce 913d ccb9 993d
000001c0: 9cd9 c7bd 2ae1 e7bd c03a 9bbc 8083 b8bb
000001d0: d09b e83c b83a e93c f08c 15bc 6096 e13b
000001e0: 30f6 e43d fe03 82bd 98e4 adbc 18a1 b7bd
000001f0: 34b9 463d 74c6 94bd b87f 7f3d a0b3 6d3c
00000200: 2432 ad3e bf45 11be e1aa 953e 1aec 473e
00000210: 2f3a b23d f71f f83d bf4f 743e 2c65 873e
00000220: 2cb1 ac3e 3b40 78bd a2d7 a5bd 34e6 273e
00000230: 8a88 95be 83cd 143e e84a 0c3d 2933 7a3e
00000240: d5b7 efbd 057b 633e 2dc4 d83e dcf3 babe
00000250: 082a 0ebe d938 763e 1e19 d83e 1be9 1ec0
00000260: 5b98 b83e d45c 1e3e 04cb 9b3e 5cb2 cd3d
00000270: 371f 1e3e 0415 27bf 1da2 013e 9483 b33e
00000280: b75f 873e 7534 96be b4be 7abf 9d2c 953c
00000290: 737f 1f3e b365 50be 0389 6a3e d488 f3be
000002a0: c2f0 0d3e 88d3 46bf aba5 8a3e 7559 a93d
000002b0: 85a2 ddbf f1eb 92be f680 083e 9927 d0be
000002c0: 82a8 323d 2708 52bf 23ae 5a3e 9251 efbe
000002d0: 29d8 943b 5a60 6f3e b095 433e 9488 873d
000002e0: 4048 edbc 44bc 073d e092 73be f3ec a53d
000002f0: 101b 9bbf 82f3 4cbf 1bb3 abbe 0cde 94bd
00000300: bfef 0d3e d8d9 b63d ca1c 483e c453 2d3e
00000310: a776 20bd 27eb b83d 3852 2d3e 1a60 243e
00000320: cb0f 9b3d dbfb 8bbe aea1 5cbe 7164 13bd
00000330: dff0 87be 1fa6 2e3e 00ab a4bd c361 6b3e
00000340: 8fd7 4dbe eb62 5b3e 6c7f 953b 34c8 89be
00000350: 48a5 dabe a32e 2e3e 5756 5d3e 0b63 73bf
00000360: 43f1 7b3e 24bf 8b3e e3ca 51be 874e 913d
00000370: e545 a03d c861 f2bc fa15 7ebc 9642 353e
00000380: 3560 973d 1cb7 34bf bcae b1bc 5d8a 0e3e
00000390: 3966 df3d 417e 1a3d f65f 633e 580d 3d3e
000003a0: 77d4 66bb 6e13 92bf 96ab ab3d 0c7c 313e
000003b0: ee67 1cbf 3481 45be a8b0 3b3e 3b63 57be
000003c0: e3c8 673e 9b4b d53e d8d5 5c3e ff1e a6bf
000003d0: 6f46 d7bc 1ccc 563d 79e0 6e3d 0118 94bd
000003e0: eddf 4cbd 39b6 0ebc cf84 abbd d837 1fbd
000003f0: 59ae a1be d077 1fbd 124a 5bbe 1d52 c2be
0.16866915 0.15730661 0.12325968 0.32516527 0.04482926 0.3339763 0.068886854 0.2517662
0.24242051 -0.29370627 -0.2450596 0.001876744 -0.37496826 -0.00885583 0.010462292 0.22478062
-0.08206885 0.18821803 0.07611126 -0.14170748 -0.56590134 0.25120485 0.117064334 -0.9511652
0.1639988 0.3838161 -0.023061441 -0.008656855 0.19787958 -0.086490504 0.17390366 0.1195733
0.08680608 -0.60420996 -0.20738727 0.15931319 0.124323905 0.0862562 0.25372216 -0.07035967
-0.13345426 -1.1905072 0.15111065 0.052407365 -0.4485776 -0.18569906 0.18260288 -0.3818849
0.047471087 0.040528525 0.2887148 -1.7649467 0.08290758 0.17958881 0.3136518 0.20479918
-0.11991516 0.02339658 -0.02286216 -0.19556664 -0.174754 -0.10420575 -0.18539014 -0.27586976
-0.064050004 0.04984635 -0.07817726 -0.02928108 -0.06950864 -0.017877355 -0.017110094 0.07225835
-0.013878584 0.088233024 -0.07597229 -0.045543343 0.062165603 -0.12492518 -0.079976395 -0.047324374
-0.016131178 0.073568344 -0.12407692 -0.0077411234 0.010842666 -0.107604906 -0.09604348 0.016526029
-0.0037314445 0.0038353205 -0.04456389 0.12456389 -0.015259504 -0.06243445 -0.07575303 -0.06779304
-0.043302223 -0.07982999 0.0196466 -0.014952123 -0.00019234419 -0.0018796772 -0.08628072 0.09998517
-0.06494933 0.07954559 -0.056759045 -0.029606402 -0.08600597 0.0598751 0.07119483 0.07506141
-0.097583026 -0.113222435 -0.018948913 -0.0056309104 0.02839461 0.028470382 -0.00912784 0.006884381
0.11179769 -0.06348418 -0.021227166 -0.08966273 0.048516467 -0.072644144 0.06237766 0.014508158
0.33827317 -0.14186762 0.29231933 0.1952366 0.08702504 0.12115472 0.23858546 0.26444376
0.3372892 -0.06060813 -0.08097769 0.1639641 -0.29205734 0.14531521 0.034251124 0.24433579
-0.11704985 0.22214897 0.4233717 -0.36514175 -0.13883221 0.24045123 0.42206663 -2.4829776
0.36053738 0.15465099 0.30428326 0.10043785 0.15441595 -0.6526644 0.12659498 0.35061324
0.26440212 -0.29336897 -0.9794724 0.01820975 0.15575962 -0.20351295 0.22903828 -0.4756533
0.13861373 -0.7766652 0.2707952 0.08269016 -1.7315222 -0.28695634 0.13330445 -0.4065521
0.043617733 -0.8204369 0.2135549 -0.4674192 0.00454237 0.23376599 0.1910007 0.06617847
-0.028965116 0.03313853 -0.23786497 0.08101835 -1.2117634 -0.80059063 -0.33535084 -0.072689146
0.13860987 0.08928269 0.19542232 0.16926485 -0.039175656 0.09029227 0.16925895 0.16052285
0.07571372 -0.27340588 -0.21546051 -0.03598446 -0.26550958 0.17055558 -0.08040428 0.22986512
-0.2010176 0.21424453 0.004562309 -0.26910555 -0.42704225 0.17009978 0.21614967 -0.95073
0.24603753 0.27294266 -0.20487551 0.07095056 0.07825831 -0.029587641 -0.015508169 0.17701182
0.07391397 -0.705919 -0.021689765 0.13919969 0.10908169 0.03771806 0.22204575 0.18462121
-0.0035221854 -1.141218 0.08382337 0.17332476 -0.61096084 -0.19287568 0.18329108 -0.21033947
0.22635226 0.41659245 0.2156595 -1.2978209 -0.026278703 0.052440748 0.058319543 -0.07231141
-0.05001824 -0.008710437 -0.083749406 -0.038871616 -0.3157833 -0.03893262 -0.21414974 -0.37953272

fc2.bias f4 [64]
00000000: 5bdc 053e 1cbf f8bd a031 413e ef8a 983e
00000010: 8cf1 68bc 8d61 0dbe a067 15be e2c0 0cbd
00000020: 93bd 603e 4200 403d 4b75 12be 429f 5f3d
00000030: efcf eebd da13 c1bd 1651 903e b811 b2bd
00000040: 44cc 56bd ace9 c2bd 2677 033e f89d 023d
00000050: b8f4 393e a618 a33d dedb c53d 7961 333d
00000060: 89e7 3a3e 7892 c7bc f957 d5bc 5b66 4abd
00000070: 93f7 fc3d cd50 573e 4da0 133e 4ad5 273e
00000080: 311a b53e 2c66 493e 5032 be3e c7db 803d
00000090: 3358 5a3e 7d8d 5bbd 0edd 0fbe bd1c 62bd
000000a0: 378a 90bd 0f5f 313e 60bc b2bd 383a 0c3e
000000b0: 28a8 243e 2d63 13be 002f ba3d d790 a13e
000000c0: 42e3 2f3e eaf6 35bc 83d6 c63e ff64 fcbd
000000d0: 1fa3 c93c 3d1c 2c3e 24c1 593e 196e cb3d
000000e0: 1409 263e 6601 123d 27bd 8ebd f136 613d
000000f0: 0862 1bbc a87f c9bd 888e 9d3d 39f8 b43e
0.1307234 -0.12145826 0.18866587 0.29793498 -0.0142177455 -0.13806744 -0.14590311 -0.034363635
0.21947317 0.046875246 -0.14302556 0.05459524 -0.11660754 -0.094276145 0.28186864 -0.08694786
-0.052440897 -0.095172256 0.1283842 0.031888932 0.18159759 0.07963686 0.09661077 0.04379413
0.18252386 -0.024361834 -0.026042925 -0.04941402 0.123519085 0.21026917 0.14416619 0.16389957
0.35371545 0.19667882 0.3714776 0.06291919 0.21322708 -0.05360173 -0.1404917 -0.05520319
-0.070576124 0.17321418 -0.08727336 0.13694084 0.16079772 -0.14393301 0.09090996 0.31555817
0.17176536 -0.011106232 0.38835534 -0.12323951 0.024613915 0.16807647 0.21265084 0.09933109
0.162144 0.035645865 -0.06969672 0.054984037 -0.009483822 -0.098388016 0.07693201 0.3534563

fc3.weight f4 [2, 64]
00000000: 864f 1d3e f62e bc3d b221 103f 3112 9d3e
00000010: f981 7e3f eeb3 ccbf 3412 f6bf 8627 9cbe
00000020: d7a3 183f b326 26bb 72af 29bf a2a7 7b3d
00000030: 775c 1fc0 ff2f 4dbd ff9f e83e 20e6 1e3c
00000040: 6ef0 f1bd 4a29 1c3e 8af4 c93e 9085 3abf
00000050: 6712 b53e 28af 123e 8a60 95bd d17a 5dbf
00000060: ad8f 11bc 8c3d 91bd debc b9bd 92c3 9ebf
00000070: b07e 7bbf ac94 ae3e c116 783e 7800 bd3e
00000080: 3162 a23e a06d ab3e 504a 223f 4523 a73e
00000090: 9c8c 2a3f 7bde ccbe 67ca 9ebd a604 cbbc
000000a0: 42b4 f7bf a247 203e 5aa8 643d 4996 6c3f
000000b0: d408 453f fa73 9d3f 1870 9c3e c4b5 f43e
000000c0: 6c0a f23d c00f 30bf 129c e03e f75d ba3c
000000d0: 3d75 67bf 2a2a f93e a35f 693e 6c99 8d3f
000000e0: 0662 483f 065f 9dbf 0414 92bf 8f96 823e
000000f0: 6e5e 9bbd e09c 873d 56b9 a43f a907 c53e
00000100: faa9 083f e0ba 37bc d2ff 683f 2fea e33e
00000110: 8ef0 b7bf 14bd 87bf 5d95 f8be f8ab 0c3f
00000120: 92e1 263f b904 a7bd 648a cebf b4c5 88be
00000130: 6a4e 50bf b3f0 cebd 720f bd3e ce77 9f3d
00000140: 3060 573c 876f 9cbd c29b f43e e65e e13b
00000150: 2f1c 083f 694d 9f3e 00cf ba3a 19b3 4b3e
00000160: 034f 973e fc2f 88bd 3e5d 4abd 6ee5 c13e
00000170: 8625 37bf 4dea bf3e 8a50 013f 0cca 073f
00000180: 0c4a 3c3f 1688 323f 1f88 953f bcd8 ca3e
00000190: e56a 6a3f 509f d1bf eea9 a43d 93d9 b43d
000001a0: f3b7 72c0 a497 a03e 001d fdbb c546 c9be
000001b0: 6643 2bbf 8518 e2bf 0111 4c3e c479 473f
000001c0: 96a6 093f 70fe 14c0 2c7a 773f 8e28 c8bd
000001d0: 05b6 ccbe 3809 373f 3127 883e d6d7 00bf
000001e0: 5199 15bf 9385 7cbf dc62 b5be 8fae a03e
000001f0: 63b5 91bd 0001 05bd a90e a4bf 447b e63e
0.15362367 0.091886446 0.56301415 0.3067794 0.9941707 -1.599241 -1.9224305 -0.30498904
0.59625 -0.0025352656 -0.66283333 0.061439164 -2.4900186 -0.0500946 0.45434567 0.009698421
-0.118134364 0.15250126 0.3944438 -0.7286005 0.35365602 0.1432463 -0.07293804 -0.8651553
-0.008884353 -0.07091817 -0.09069227 -1.2403433 -0.98240185 0.34097803 0.2422743 0.3691442
0.3171554 0.33482075 0.6339464 0.32644096 0.666208 -0.4001349 -0.07753449 -0.02478249
-1.9351885 0.15652326 0.055824615 0.92416817 0.76966596 1.2301018 0.3055427 0.47794926
0.11818394 -0.6877403 0.43869072 0.022749884 -0.90413266 0.4866498 0.22790389 1.1062446
0.7827457 -1.2294624 -1.1412358 0.25505492 -0.075863704 0.066217184 1.286906 0.38482407
0.53384364 -0.011213988 0.9101535 0.44514605 -1.4370286 -1.0604577 -0.48551455 0.54949903
0.65187943 -0.08155198 -1.6135983 -0.26713336 -0.8136965 -0.101045035 0.36925846 0.07786523
0.0131454915 -0.0763846 0.47775084 0.006877768 0.53168005 0.31113747 0.0014252365 0.19892539
0.2955247 -0.06649777 -0.04940533 0.37870353 -0.7154163 0.37483445 0.5051352 0.53042674
0.73550487 0.697389 1.1682166 0.3961848 0.9156936 -1.6376743 0.08040224 0.088305615
-3.7924774 0.31365693 -0.0077244043 -0.39311805 -0.66899717 -1.7663733 0.19928361 0.77920175
0.53769815 -2.3280296 0.96670794 -0.0977336 -0.3998262 0.7149844 0.265924 -0.5032934
-0.5843707 -0.9864132 -0.35426986 0.31383178 -0.07114675 -0.032471657 -1.2816974 0.4501592

fc3.bias f4 [2]
00000000: ac21 6b3e 8ce3 fa3d
0.22962064 0.12250432
